lstm预测Google股票价格/best_model/best_model.pth (torch, 176418 bytes, 13 tensors)

lstm1.weight_ih_l0 f4 [200, 1]
0	0xbd82afac	-0.06381163
1	0x3c80d4ef	0.015726535
2	0xbd01eca5	-0.031719822
3	0xba2ef156	-0.0006673535
4	0xbd3c0174	-0.045899823
5	0xbd424819	-0.04743204
6	0x3d16f13b	0.03685115
7	0xbccebdbb	-0.025236955
8	0xbd0ea72c	-0.034827396
9	0x3d35d5f9	0.044393513
10	0xbd8c225a	-0.068424895
11	0x3df38084	0.11889747
12	0xbd9777c0	-0.073958874
13	0xbd617eba	-0.055052496
14	0x3c8af87d	0.016964192
15	0xbe0abbd8	-0.13548219
16	0x3e0c7d99	0.13719787
17	0xbd2dc8af	-0.042427715
18	0xbbe35650	-0.0069377795
19	0xbdb443c3	-0.08801987
20	0x3ddafe86	0.10693078
21	0x3db4cacb	0.08827742
22	0xbd90775c	-0.07054016
23	0x3b07231b	0.002062029
24	0x3c9daea8	0.019248322
25	0xbd10512c	-0.03523366
26	0xbd2fbd6d	-0.04290526
27	0x3da4979b	0.08036729
28	0xbca9b58d	-0.020716453
29	0x3d57815e	0.05261361
30	0xbba95b49	-0.0051683527
31	0x3d83461a	0.06409855
32	0x3db520ee	0.088441715
33	0x3df44dba	0.11928888
34	0xbd5c3dab	-0.05376975
35	0x3e0e33bc	0.13886923
36	0x3d6475ee	0.05577653
37	0x3cdf2dcd	0.02724352
38	0x3ccf8ead	0.025336588
39	0xbd6a623b	-0.057222586
40	0x3c4dee5e	0.012569038
41	0x3b9a6c9d	0.0047126547
42	0xbdd09557	-0.10184734
43	0x3decc00c	0.115600675
44	0x3dfa4210	0.12219632
45	0x3dc762df	0.09735655
46	0xbe03a00f	-0.12854026
47	0xbcfb8f37	-0.030707939
48	0xbbc123e6	-0.005894172
49	0x3dddee32	0.10836448
50	0x3d88c924	0.066789895
51	0x3cdc7d1d	0.026915127
52	0x3d87e744	0.06635907
53	0xbd917789	-0.07102878
54	0x3d331d1a	0.043728925
55	0x3dba477b	0.09095665
56	0x3d1d8876	0.038460217
57	0x3e0cc303	0.13746266
58	0x3d4ced51	0.05003101
59	0x3b837d6a	0.0040127533
60	0x3bd6a966	0.0065509556
61	0x3c8b33ad	0.016992414
62	0xbe0aa565	-0.13539656
63	0xbd7b6a9b	-0.061380964
64	0x3d1d3a6a	0.038385786
65	0x3dd2b13a	0.102877095
66	0xbca25bff	-0.019819258
67	0x3d6921bc	0.056916937
68	0x3e01ed63	0.12688212
69	0x3d7104bd	0.05884241
70	0xbc924646	-0.017855775
71	0x3de96a8a	0.11397274
72	0xbdb2e13b	-0.087343656
73	0xbe07f82b	-0.13278262
74	0x3e0127c1	0.12612821
75	0xbd789386	-0.060687564
76	0x3c088854	0.008333284
77	0xbdb4fc71	-0.08837212
78	0x3d1eea08	0.03879741
79	0x3e0b18bf	0.13583659
80	0xbd905899	-0.07048149
81	0xbd9f36d3	-0.07774129
82	0xbd8dc977	-0.06923192
83	0xbdf4572d	-0.1193069
84	0xbdc45613	-0.0958673
85	0x3d766b6f	0.06016105
86	0x3d7b477f	0.06134748
87	0xbcda61ce	-0.026657965
88	0xbe0b184c	-0.13583487
89	0xbdba66aa	-0.09101613
90	0x3d6fa22d	0.058504272
91	0x3d1972a2	0.037462838
92	0x3da04a64	0.07826689
93	0x3dc3f3d2	0.095679894
94	0x3d795ace	0.060877614
95	0xbdf88542	-0.12134792
96	0xbda6466f	-0.08118903
97	0x3db5c413	0.08875289
98	0x3df6f91c	0.120592326
99	0xbd5bbf93	-0.053649496
100	0xbd6ac51a	-0.057316877
101	0x3cae109a	0.02124815
102	0xbda90c9c	-0.08254358
103	0xbdcc8203	-0.09985735
104	0x3da0a217	0.07843416
105	0xbe0d9608	-0.13826764
106	0xbe0e3771	-0.13888337
107	0x3d674122	0.0564586
108	0x3e07b74a	0.13253513
109	0xbdf536bc	-0.119733304
110	0x3cf48b6a	0.029851634
111	0xbd93846e	-0.07202993
112	0x3d86eba4	0.06587914
113	0x3db68d32	0.089136496
114	0xbd81bf9a	-0.06335373
115	0xbe01eea4	-0.1268869
116	0xbdcd6397	-0.10028761
117	0x3df19f09	0.11797912
118	0x3d8ced6c	0.06881222
119	0x3dd0a0f4	0.10186949
120	0x3bac5e2c	0.0052602496
121	0xbd91199f	-0.07084965
122	0x3d6fc6f7	0.058539357
123	0x3df0d9d3	0.11760297
124	0xbd8f9c8b	-0.0701228
125	0x3d74145a	0.05958972
126	0xbdb65a46	-0.08903937
127	0x3dc670b4	0.09689465
128	0xbdced87b	-0.10099884
129	0x3df3923f	0.118931286
130	0xbe0c81b2	-0.1372135
131	0x3d5b347c	0.05351685
132	0xbd3d86d3	-0.046271157
133	0xbd84134b	-0.06448992
134	0xbdacbdf3	-0.084346674
135	0x3dbd1239	0.09231991
136	0xbcac8041	-0.02105725
137	0xbe069b48	-0.13145173
138	0x3d26eb5a	0.040751792
139	0xbd75f4fe	-0.060048096
140	0x3df923b1	0.12165011
141	0x3cb89762	0.022533122
142	0xbd21d642	-0.039510973
143	0x3d937550	0.0720011
144	0x3dc24d45	0.09487394
145	0x3cdadb5b	0.026715925
146	0xbacd04e2	-0.0015641714
147	0x3a8d021b	0.0010758074
148	0x3d6c9c44	0.057766214
149	0x3d2a0335	0.041506965
150	0x3c74e705	0.0149476575
151	0x3d906332	0.0705017
152	0xbd9f86be	-0.07789372
153	0xbdaf6503	-0.08564188
154	0x3d787dfe	0.06066703
155	0x3dc1dfd2	0.094665185
156	0x3d5449cf	0.0518282
157	0x3cedb34f	0.029016165
158	0x3d523229	0.051317368
159	0xbdacc0bc	-0.08435199
160	0xbdf9c13a	-0.12195058
161	0x3e08c313	0.13355665
162	0x3d5e74e4	0.054310694
163	0x3e0d1917	0.13779102
164	0x3b5ec332	0.0033990857
165	0x3cea5789	0.028606193
166	0x3c7aa56e	0.015298231
167	0x3c5596b0	0.013036415
168	0xbdad0161	-0.08447529
169	0x3d5a4839	0.053291533
170	0xbe04ae9e	-0.12957236
171	0x3b189964	0.0023284787
172	0xbe07c262	-0.13257745
173	0x3bbd9add	0.0057862834
174	0x3da71651	0.081585534
175	0x3d964bbc	0.07338664
176	0x3e088913	0.1333354
177	0xbdf5c41f	-0.12000298
178	0x3dff4520	0.124643564
179	0x3d30f418	0.043201536
180	0xbdc2ffa1	-0.095214136
181	0xbe0840e6	-0.13306007
182	0xbc6c080a	-0.014406214
183	0xbde1ae1d	-0.110195376
184	0x3e094719	0.13406028
185	0xbc2bb369	-0.010479786
186	0x3d8b47e6	0.06800823
187	0x3d0c3765	0.034232516
188	0x3da20c06	0.079124495
189	0x3dbf1341	0.09329844
190	0x3b6045db	0.0034221325
191	0x3d9f366d	0.07774053
192	0xbd876407	-0.066108756
193	0xbd9d18b1	-0.07670725
194	0xbd299016	-0.041397177
195	0x3d21a040	0.039459467
196	0xbe025c90	-0.12730622
197	0xbd2617bb	-0.040549975
198	0xbdd07b83	-0.10179808
199	0xbc16cb7a	-0.009203786

lstm1.weight_hh_l0 f4 [200, 50]
0	0xbda8aa40	-0.082355976
1	0xbd80ad43	-0.06283047
2	0x3c1814d3	0.009282309
3	0x3d8bfa0b	0.06834801
4	0x3d66ca32	0.056345172
5	0xbdf68323	-0.12036731
6	0x3dee074b	0.11622485
7	0x3da45ae8	0.080251515
8	0xbcb774ad	-0.022394503
9	0xbda9a593	-0.08283534
10	0x3df631e6	0.12021236
11	0xbe0596d2	-0.13045815
12	0x3dfd5791	0.123702176
13	0x3e020924	0.126988
14	0xbe054d5c	-0.13017792
15	0x3b7763e9	0.003774876
16	0xbe0401d7	-0.12891327
17	0x3d88daab	0.066823326
18	0x3dc30a26	0.0952342
19	0x3e0baa7a	0.1363925
20	0x3e0806b1	0.13283803
21	0xbdb828db	-0.089921676
22	0xbdbd883f	-0.092545025
23	0xbbb95caf	-0.0056568007
24	0xbd259385	-0.04042389
25	0xbd2cc000	-0.042175293
26	0x3d890b9e	0.06691669
27	0x3d572858	0.05252871
28	0x3d5f41eb	0.054506224
29	0x3d35d306	0.0443907
30	0xbb27b153	-0.0025587871
31	0x3abed924	0.0014560563
32	0x3df9374e	0.12168752
33	0x3bb85e20	0.005626455
34	0xbd1adfc8	-0.03781107
35	0xbd72f5f1	-0.05931658
36	0xbd95a495	-0.07306782
37	0x3d950e1a	0.0727808
38	0xbc80a268	-0.015702441
39	0xbd9924f0	-0.074777484
40	0x3e0173c7	0.12641822
41	0x3dbb0353	0.091314934
42	0xbd87f74a	-0.066389635
43	0x3d8b96cd	0.06815872
44	0x3d64223e	0.05569672
45	0xbdf7ff52	-0.12109245
46	0xbdaf45ff	-0.085582726
47	0x3dbe7bdb	0.09300967
48	0xbdcb6d6b	-0.09932979
49	0xbd13af33	-0.036055755
50	0xbd203e53	-0.039121937
51	0xbdbcf28f	-0.09225952
52	0x3d48c2e5	0.04901399
53	0xbd37e524	-0.04489626
54	0xbcbce32a	-0.023057539
55	0xbcb7fe1a	-0.022460032
56	0x3d324056	0.043518387
57	0x3da23ae7	0.07921391
58	0x3d0fadee	0.03507798
59	0xbdc36e2b	-0.09542497
60	0x3e0f5505	0.13997276
61	0xbc2471bb	-0.010036881
62	0xbdeca463	-0.11554792
63	0xbd8fdfdc	-0.0702512
64	0x3ccb2a0c	0.024800323
65	0xbd8aed91	-0.067835934
66	0x3ddb3143	0.10702755
67	0xbc217c74	-0.009856332
68	0x3de513bf	0.11185407
69	0xbddcf0ba	-0.107881024
70	0x3c256e46	0.010097092
71	0xbc4a805b	-0.012359704
72	0xbded37b7	-0.115828924
73	0xbcd48829	-0.025943832
74	0xbd2ff2b6	-0.042956077
75	0x3d6ec2b6	0.05829116
76	0x3dd9c80d	0.1063386
77	0xbd5684a1	-0.05237258
78	0xbd8d8818	-0.069107234
79	0x3be0f78d	0.006865448
80	0xbde8e85b	-0.11372443
81	0xbe0f35cb	-0.13985364
82	0xbd4a3218	-0.04936418
83	0xbd789269	-0.060686503
84	0x3bc9c8b8	0.0061579607
85	0xbd88226a	-0.06647189
86	0x3df57557	0.119852714
87	0xbdfdbdc7	-0.12389713
88	0x3e0ed678	0.13949001
89	0x3d9176a7	0.07102709
90	0x3da43d42	0.080194965
91	0xbdf23a5f	-0.1182754
92	0x3de8e605	0.11371998
93	0xbc361f64	-0.011115883
94	0xbe0a0b44	-0.1348086
95	0xbe0782c8	-0.13233483
96	0xbdfc6a52	-0.123249665
97	0xbd210d6b	-0.039319437
98	0xbd94d2db	-0.0726678
99	0x3d9d2ba5	0.0767434
100	0x3d373638	0.04472944
101	0x3aa847cb	0.0012838779
102	0x3e01b9b7	0.12668501
103	0x3c1310a6	0.008976137
104	0xbc96d7c2	-0.018413428
105	0x3dbc53f1	0.09195698
106	0xbd82697a	-0.06367774
107	0x3e0433fc	0.12910455
108	0x3d6d7b1c	0.057978734
109	0x3e037463	0.12837367
110	0xbdb7e34d	-0.08978901
111	0x3d867d7e	0.065669045
112	0x3dc9ccb2	0.09853496
113	0xbdbe6e82	-0.092984214
114	0x3d05b918	0.032647222
115	0xbd1cf56f	-0.03832
116	0x3dfe7703	0.124250434
117	0xbcf80ddd	-0.030280048
118	0xbdfaa4c6	-0.12238459
119	0xbcde2533	-0.027117347
120	0x3d0fe082	0.035126217
121	0xbd441352	-0.047869988
122	0x3b108860	0.0022053942
123	0x3d5159c4	0.051110998
124	0xbe0baa35	-0.13639148
125	0x3c9f7fba	0.019470084
126	0xbdd3e89a	-0.103470996
127	0x3d95eba8	0.073203385
128	0xbd4f2711	-0.050574366
129	0xbdea2615	-0.11433045
130	0x3dc63356	0.0967776
131	0x3e0a248d	0.13490506
132	0x3cb0c884	0.021579988
133	0x3d878435	0.06617013
134	0xbc34d76f	-0.0110376915
135	0xbce99f83	-0.028518444
136	0x3ccf3ca7	0.025297476
137	0x3d826ff2	0.06369008
138	0x3ddec139	0.10876698
139	0x3e073550	0.13203931
140	0xbd015276	-0.03157278
141	0x3d451f83	0.048125755
142	0x3d9acf0d	0.07559023
143	0x3e0c749e	0.13716361
144	0x3d9176c4	0.07102731
145	0xbde36f14	-0.11105171
146	0x3c8cb946	0.017178189
147	0x3d8fc39f	0.07019734
148	0x3d4b4ee2	0.049635775
149	0xbd7636f7	-0.060111012
150	0x3d314909	0.043282542
151	0x3e00bf6c	0.12573022
152	0x3db91c32	0.09038581
153	0x3dbc314b	0.091890894
154	0xbd159e24	-0.036527768
155	0xbba6df98	-0.0050925724
156	0x3d3ff3ca	0.046863355
157	0xbd9d8878	-0.07692045
158	0xbd43a3dd	-0.047763694
159	0xbc9ac14e	-0.018891003
160	0x3dcc5b4d	0.09978352
161	0x3d70b7f2	0.058769174
162	0xbe0d2f7b	-0.13787644
163	0xbdcf9cfa	-0.10137363
164	0x3df76aa0	0.12080884
165	0x3cdf6c06	0.02727319
166	0xbd90a566	-0.07062797
167	0xbd9d6281	-0.07684804
168	0xbe01342c	-0.12617558
169	0x3b89703d	0.004194288
170	0x3da4fefe	0.080564484
171	0x3dcc1b55	0.09966151
172	0x3e06c0b4	0.13159448
173	0xbddb6dd5	-0.10714308
174	0xbc2d3bfe	-0.010573385
175	0x3d9bd35f	0.07608675
176	0x3dd648ea	0.10463126
177	0xbe0ad3c6	-0.13557348
178	0xbd46325d	-0.048387874
179	0x3dccc3a9	0.09998257
180	0xbcf61e40	-0.030043721
181	0xbc924dfb	-0.01785945
182	0xbd434c41	-0.047680143
183	0x3c76e982	0.015070321
184	0xbd389b73	-0.045070123
185	0x3c7020c9	0.014656254
186	0xbdb78bd5	-0.08962218
187	0x3dce8f92	0.100859776
188	0x3dd49671	0.10380257
189	0x3dbee7b3	0.09321537
190	0xbddff051	-0.109345086
191	0xbde81cf2	-0.11333646
192	0x3dd32a3f	0.10310792
193	0x3df981fc	0.12182996
194	0x3e0b480d	0.13601704
195	0x3e100442	0.14064124
196	0xbd9ca517	-0.07648676
197	0x3d2e0482	0.042484768
198	0x3de8a470	0.11359489
199	0xbdf255fe	-0.11832808
200	0xbd64b1fb	-0.055833798
201	0x3df1e587	0.11811357
202	0x3d98bb67	0.07457619
203	0xbde74308	-0.11292082
204	0x3d85a24e	0.06525098
205	0xbda60260	-0.08105922
206	0x3df0dbc5	0.11760668
207	0xbd238780	-0.039924145
208	0xbd6ee139	-0.058320258
209	0x3b933078	0.004491862
210	0xbc91b853	-0.017788088
211	0x3dcb1119	0.099153705
212	0x3ce9c8bc	0.0285381
213	0xbd24443a	-0.04010413
214	0x3cd95fa3	0.026534861
215	0xbe09a4da	-0.13441792
216	0xbd881aac	-0.06645712
217	0x3db12616	0.086498424
218	0xbdc0fee4	-0.094236165
219	0x3d0bf947	0.034173276
220	0xbde0a493	-0.1096889
221	0xbd8507ac	-0.06495604
222	0xbdbfb98f	-0.09361564
223	0xbdda468d	-0.10657988
224	0x3e05f08d	0.13080044
225	0xbdf41e67	-0.11919861
226	0xbe0e6761	-0.13906623
227	0xbd4faef9	-0.050703976
228	0x3dbe1b4f	0.092825525
229	0xbcd74bb7	-0.02628122
230	0x3c9ea340	0.019364953
231	0x3d74f7e2	0.059806712
232	0x3bf4b726	0.007468122
233	0xbdc5dc58	-0.09661168
234	0xbd8a4eb2	-0.06753291
235	0xbdffa8db	-0.124833785
236	0xbd668b71	-0.056285325
237	0xbc152148	-0.009102173
238	0x3db67029	0.089081116
239	0xbcd6903a	-0.02619182
240	0x3c9aa36e	0.018876757
241	0x3d86800c	0.06567392
242	0x3d2d35d7	0.042287674
243	0xbdc5fab9	-0.09666962
244	0xbd4f4acb	-0.050608438
245	0xbdc8324f	-0.097752206
246	0x3d1e4aef	0.03864568
247	0xbbb7ad59	-0.0056053814
248	0xbd8a8b23	-0.067648195
249	0xbd198504	-0.03748037
250	0xbd8d4af4	-0.06899062
251	0xbdbf1fee	-0.09332262
252	0xbe0b66e0	-0.13613462
253	0xbd3b1dff	-0.045682903
254	0xbd9c2f07	-0.07626157
255	0x3ca2ad1c	0.019857936

lstm1.bias_ih_l0 f4 [200]
0	0xbcb11dcb	-0.021620652
1	0x3c912b57	0.017720861
2	0x3dc252ee	0.09488474
3	0x3d909f5f	0.070616476
4	0x3d5a26cb	0.053259652
5	0xbe0e0e3d	-0.13872619
6	0xbda49348	-0.08035904
7	0x3dd2957f	0.1028242
8	0xbd83842d	-0.06421695
9	0xbcdf7f6f	-0.027282445
10	0xbc87dcdf	-0.016584812
11	0x3cee6df3	0.029105162
12	0x3c0e2405	0.00867558
13	0x3d83148b	0.06400403
14	0x3df2a958	0.11848706
15	0x3dd2e961	0.1029842
16	0xbd8e32b1	-0.06943262
17	0x3df84c26	0.12123899
18	0xbded26ba	-0.11579652
19	0x3d8f785c	0.070053786
20	0x3e063d83	0.13109402
21	0x3d791ae6	0.060816668
22	0xbc4b39b0	-0.0124038905
23	0x3e092ec6	0.13396749
24	0xbd2bcaef	-0.04194158
25	0xbde6461a	-0.112438396
26	0x3bb84ecf	0.005624629
27	0x3dc9b031	0.09848059
28	0x3d2edc5d	0.042690624
29	0xbd296af7	-0.041361775
30	0x3dbdf29b	0.09274789
31	0x3d17bd5b	0.037045818
32	0x3c72b721	0.014814169
33	0x3e100bfe	0.14067075
34	0x3d7996d6	0.060934864
35	0x3e01a8ed	0.12662096
36	0xbdb54626	-0.088512704
37	0x3e065ed4	0.13122112
38	0xbda3e6f8	-0.08003038
39	0x3db15b70	0.086600184
40	0xbd818188	-0.06323534
41	0xbcefb77a	-0.029262293
42	0x3e006561	0.12538673
43	0x3df8b52a	0.12143929
44	0xbcf32410	-0.029680282
45	0xbd9f7720	-0.07786393
46	0xbda72d9d	-0.08162997
47	0x3d25b748	0.040457994
48	0xbdffcb81	-0.12489987
49	0xbdc2f9d9	-0.09520311
50	0xbd8c0316	-0.06836526
51	0x3d41c739	0.047309134
52	0xbdf7c15d	-0.12097428
53	0x3e0838a3	0.13302855
54	0x3d1e23a7	0.03860822
55	0x3db174b9	0.08664841
56	0xbd886a52	-0.06660904
57	0xbe0114b2	-0.12605551
58	0x3e0f8541	0.14015676
59	0xbddabab2	-0.106801406
60	0x3dfdde96	0.123959705
61	0xbd9b918a	-0.07596119
62	0xbd448bd9	-0.04798493
63	0xbe08da74	-0.13364583
64	0xbbae16b3	-0.0053127646
65	0x3d16d994	0.036828592
66	0xbcc8d3ec	-0.024515115
67	0x3d285f92	0.041106768
68	0x3dfb47f7	0.122695856
69	0x3dcf5e1e	0.10125373
70	0xbc4bd290	-0.012440339
71	0xbe013af5	-0.12620147
72	0x3e025c66	0.1273056
73	0x3dd6c8e0	0.104875326
74	0x3c448cd2	0.011996465
75	0xbdc7f9b0	-0.09764421
76	0xbdde8d2c	-0.1086677
77	0xbbe9e3b6	-0.007137741
78	0x3d4dce29	0.050245438
79	0x3e022743	0.1271029
80	0x3ce8c80e	0.028415706
81	0xbd23a341	-0.039950613
82	0x3dfbbec5	0.12292246
83	0x3d5fc258	0.0546287
84	0xbcfc9ca0	-0.030836403
85	0xbd903ffc	-0.07043454
86	0x3c6273e6	0.013821578
87	0xbdd8ae43	-0.10580113
88	0xbd5f866b	-0.05457155
89	0xbdc8540e	-0.09781657
90	0x3c1ef038	0.009700827
91	0xbdd73c91	-0.10509599
92	0xbd53e335	-0.051730353
93	0xbcd089aa	-0.025456268
94	0x3ba22eed	0.0049494416
95	0x3e0ed21d	0.1394734
96	0xbcf787d4	-0.030216135
97	0xbdb7c6b8	-0.089734495
98	0xbdcbea4b	-0.09956797
99	0x3c994088	0.018707529
100	0xbc9cb3d1	-0.019128712
101	0xbdb94d95	-0.09048001
102	0x3dae3ae9	0.0850733
103	0x3d5c3c8e	0.053768687
104	0xbd6616bc	-0.056174025
105	0x3dbffbcc	0.09374198
106	0xbe033778	-0.12814128
107	0x3dd5377f	0.10410976
108	0x3dbcc092	0.09216417
109	0x3e0c3c6f	0.13694929
110	0xbda911dc	-0.082553595
111	0xbdac6dbd	-0.084193684
112	0x3dac975a	0.084273055
113	0xbd99b063	-0.07504346
114	0x3dd5b434	0.10434762
115	0x3d94d22f	0.07266652
116	0x3dbd304b	0.09237727
117	0xbdfa2b69	-0.12215311
118	0xbda96cc2	-0.08272697
119	0xbdb59548	-0.08866364
120	0xbdbce700	-0.09223747
121	0x3dbb5591	0.0914718
122	0x3d782c29	0.06058899
123	0xbd8265a8	-0.06367046
124	0x3d89faea	0.06737311
125	0xbde4cf7a	-0.111723855
126	0xbcc1ff86	-0.023681413
127	0x3daf077f	0.08546352
128	0x3c0f6609	0.008752354
129	0x3cc5062c	0.024050795
130	0xbd73c07e	-0.059509747
131	0xbe0de125	-0.13855417
132	0xbd549caa	-0.05190722
133	0xbd1cf5c1	-0.038320307
134	0x3d97d6c9	0.07414014
135	0x3cf17a3e	0.029477235
136	0xbe06545a	-0.13118115
137	0x3c640c65	0.013918971
138	0xbe032a4e	-0.12809107
139	0xbe064731	-0.13113095
140	0xbdc8731e	-0.09787582
141	0x3d919764	0.071089536
142	0x3dc4b2a7	0.09604388
143	0xbde12c79	-0.109948106
144	0xbc5d3137	-0.013500503
145	0xbda00585	-0.07813553
146	0x3e047188	0.12933934
147	0x3e0631fc	0.13105005
148	0x3db67594	0.08909145
149	0xbb729915	-0.0037017514
150	0x3d7bfa41	0.061517958
151	0xbd009f70	-0.03140205
152	0xbdbc92ab	-0.09207662
153	0xbe006857	-0.12539802
154	0xbd71f418	-0.059070677
155	0xbd49a60d	-0.049230624
156	0x3cf8fbf2	0.030393574
157	0x3e0af0b3	0.13568382
158	0x3e00a698	0.1256355
159	0xbc9a0dbc	-0.018805377
160	0x3dc3d0cf	0.095613115
161	0xbcc56790	-0.024097234
162	0xbe0400c1	-0.12890913
163	0xbdca48e6	-0.098771855
164	0x3ca77643	0.020442134
165	0x3d366d4c	0.044537827
166	0x3de165e4	0.11005762
167	0xbdf8b617	-0.12144106
168	0x3d4e7a2a	0.050409473
169	0xbdf0a110	-0.1174947
170	0xbde703a4	-0.11279991
171	0x3dce1e2a	0.10064347
172	0x3d2950c8	0.041336805
173	0x3df17cfa	0.117914155
174	0x3be83f8d	0.007087654
175	0x3da3c2e1	0.079961546
176	0x3d8942ad	0.067021705
177	0x3a88cb58	0.0010436578
178	0x3d4b303f	0.049606558
179	0x3d514e78	0.051100224
180	0xbcaac096	-0.020843785
181	0x3decb523	0.115579866
182	0x3d2261f4	0.039644197
183	0xbd818833	-0.06324806
184	0x3da0779f	0.07835316
185	0xbe03088d	-0.1279623
186	0xbbae1470	-0.005312495
187	0xbcf92b6d	-0.030416215
188	0xbd6c9c56	-0.05776628
189	0xbda20555	-0.07911173
190	0xbdd7a0b1	-0.10528696
191	0xbd098da8	-0.03358236
192	0xbdda91f9	-0.10672373
193	0x3ab3c43a	0.0013715096
194	0xbc93e06f	-0.018051354
195	0xbcce1ee9	-0.025161223
196	0x3e0598c7	0.13046561
197	0xbe102f0f	-0.14080451
198	0xbdf7c710	-0.12098515
199	0xbdf51ed4	-0.119687706

lstm1.bias_hh_l0 f4 [200]
0	0xbcfc122c	-0.030770384
1	0xbe0f65f3	-0.14003734
2	0x3e0c4c3c	0.13700956
3	0x3df5e10d	0.12005816
4	0x3d97ab93	0.07405772
5	0x3d1cd9c0	0.0382936
6	0x3da0d046	0.07852225
7	0xbd0af38e	-0.033923678
8	0x3d3d01e2	0.046144374
9	0xbce8bc12	-0.028409991
10	0xbdf6e454	-0.12055269
11	0xbdb49cec	-0.08818993
12	0xbc6bc1dc	-0.014389481
13	0xbd5d8be6	-0.054088496
14	0x3d17ad45	0.037030477
15	0xbded5a00	-0.11589432
16	0xbd873876	-0.06602566
17	0xbc81a4ab	-0.01582559
18	0xbd7eac29	-0.062175903
19	0x3cfcc9ea	0.030857999
20	0x3e0090ed	0.12555285
21	0xbd63e5a5	-0.055638928
22	0x3d8dd0ea	0.06924613
23	0xbd7836ab	-0.06059901
24	0x3df6d3e8	0.12052137
25	0xbe08b446	-0.13350019
26	0xbd596261	-0.053072337
27	0xbca3f800	-0.020015717
28	0xbdedea42	-0.11616947
29	0xbdb36538	-0.0875954
30	0xbd7a900e	-0.061172538
31	0xbdf7ce20	-0.12099862
32	0x3c9f7074	0.019462802
33	0x3b173597	0.0023072714
34	0xbccb35b1	-0.024805875
35	0x3d3b6cd3	0.04575808
36	0xbdca14b9	-0.09867234
37	0xbdaf2d06	-0.085535094
38	0xbdbaab77	-0.091147356
39	0xbd109523	-0.035298478
40	0x3cb3e6dc	0.021960668
41	0xbd66a2f6	-0.056307755
42	0x3e007875	0.1254595
43	0xbccfb881	-0.025356533
44	0x3df89d26	0.12139349
45	0x3d8beae3	0.068319105
46	0x3db65e23	0.08904674
47	0xbd834cfa	-0.064111665
48	0x3c0c5988	0.008566268
49	0x3d18f852	0.03734619
50	0x3daf1887	0.085496
51	0x3d965a71	0.07341469
52	0x3dd32650	0.10310042
53	0x3da28853	0.07936158
54	0x3e10b587	0.14131747
55	0xbdab93e7	-0.083778195
56	0xbd168593	-0.03674848
57	0xbd7f3d94	-0.062314585
58	0x3d18fb58	0.037349075
59	0x3d09554d	0.033528615
60	0xbd220246	-0.03955295
61	0xbd5fb6c4	-0.05461766
62	0x3deb5790	0.114913106
63	0xbd68eb33	-0.05686493
64	0xbdb7d57d	-0.089762665
65	0x3b85f3bb	0.004087893
66	0xbdd60214	-0.10449615
67	0x3dce73fc	0.10080716
68	0xbdcfdf96	-0.101500675
69	0xbd951810	-0.0727998
70	0x3dc4ca15	0.096088566
71	0x3d9a146f	0.07523429
72	0x3deff6ec	0.117170185
73	0xbe001475	-0.12507804
74	0xbdf24271	-0.11829079
75	0x3dcdf41f	0.10056328
76	0xbb202612	-0.0024436754
77	0x3d68de03	0.056852352
78	0x3b4b6e70	0.0031041168
79	0x3dc28dcb	0.09499701
80	0xbdcbcf14	-0.099516064
81	0xbc85f9ab	-0.016354403
82	0x3de6c49a	0.112679675
83	0xbbc6f285	-0.006071391
84	0xbdf8395c	-0.121203154
85	0x3ba1889e	0.004929616
86	0x3db79e6c	0.089657634
87	0x3db10aa5	0.086446084
88	0xbe0bdeea	-0.13659254
89	0x392cbba7	0.00016473104
90	0xbe043d41	-0.12913992
91	0xbd115f3f	-0.035491224
92	0x3d4e5cd1	0.050381485
93	0xbdddf128	-0.108370125
94	0xbe0014bb	-0.12507908
95	0xbdcfdaf5	-0.101491846
96	0xbd9d0509	-0.07666976
97	0x3d9e837c	0.077399224
98	0x3ced967e	0.029002424
99	0xbd469326	-0.048480175
100	0x3da80449	0.08203942
101	0x3dec3e73	0.11535349
102	0xbdcc7dbe	-0.09984921
103	0xbd4ab750	-0.049491227
104	0x3df68dde	0.12038778
105	0xbdafde8b	-0.085873686
106	0x3d760d75	0.060071427
107	0x3b00059e	0.0019534598
108	0x3de1d2c9	0.11026532
109	0x3da64d3b	0.08120199
110	0xbc245aed	-0.010031444
111	0x3dfa597a	0.122240975
112	0xbc5d4d49	-0.013507196
113	0xbd7e7772	-0.06212563
114	0xbd4102c9	-0.047121797
115	0x3dcf8b4d	0.101339914
116	0xbd8a087b	-0.06739899
117	0x3d2102be	0.039309256
118	0xbe102789	-0.14077581
119	0xbc50b131	-0.012737558
120	0x3d52170f	0.05129152
121	0x3dbb3d18	0.09142512
122	0xbd62ac5c	-0.055340156
123	0xbd24b527	-0.040211823
124	0x3dfd5285	0.12369255
125	0xbd31bf08	-0.043395072
126	0xbbefd3b6	-0.007318939
127	0x3d8cf5e6	0.06882839
128	0x3dda939e	0.10672687
129	0x3db34d3e	0.08754967
130	0xbe00d5a4	-0.12581497
131	0xbd76cb51	-0.06025249
132	0xbcdbf961	-0.026852312
133	0xbdd11481	-0.10208989
134	0x3e0a1ca5	0.1348749
135	0xbce23838	-0.027614698
136	0xbe04387b	-0.1291217
137	0xbc6adaa2	-0.014334353
138	0xbcc31045	-0.023811469
139	0xbdd2d8ee	-0.10295282
140	0xbdde423b	-0.10852476
141	0x3d27de6e	0.04098361
142	0x3d832f16	0.06405465
143	0xbc2280cf	-0.009918406
144	0x3d0c466c	0.034246847
145	0xbd77bb3d	-0.0604813
146	0x3e0b1d60	0.13585424
147	0x3e01f6cb	0.126918
148	0xbc3d1602	-0.011540892
149	0x3e0ad365	0.13557203
150	0xbddb8e79	-0.10720534
151	0x3d065f7a	0.032805897
152	0x3d5eb578	0.05437228
153	0x3d982edd	0.074308135
154	0xbd95fb91	-0.07323373
155	0x3e10bff3	0.14135723
156	0xbdd11c83	-0.10210516
157	0xbde282ed	-0.11060128
158	0xbdbdd77d	-0.09269617
159	0x3c3b47d7	0.011430702
160	0x3de3883e	0.111099705
161	0xbde6839a	-0.1125557
162	0x3d4e9d45	0.050442953
163	0xbdc86af0	-0.09786022
164	0x3e1484b3	0.14503746
165	0x3d581f44	0.052764192
166	0xbda0b8bc	-0.07847735
167	0x3e0416c8	0.12899315
168	0x3d9f35d7	0.07773941
169	0x3e0ceeac	0.13762921
170	0xbd8e3e57	-0.06945484
171	0x3d93e352	0.07221092
172	0xbc6833be	-0.014172493
173	0xbdd306fa	-0.10304065
174	0xbdddf7e7	-0.10838299
175	0x3db90914	0.09034935
176	0x3e0b6244	0.13611704
177	0xbd992b5b	-0.074789725
178	0xbdc6fcfc	-0.09716222
179	0xbddf37cc	-0.10899314
180	0x3e02343f	0.12715243
181	0x3cc02627	0.023455692
182	0x3d600396	0.05469092
183	0xbdc71561	-0.097208746
184	0xbda58e4e	-0.08083783
185	0x3e03d534	0.128743
186	0x3e022e9a	0.1271309
187	0x3e049999	0.12949218
188	0xbc36807a	-0.01113903
189	0xbc0a8537	-0.008454612
190	0x3bafdf6a	0.005367209
191	0xbaf9c9ae	-0.0019057298
192	0x3df5efdb	0.120086394
193	0x3db8b1b3	0.090182684
194	0x3db7044f	0.08936369
195	0xbddb62a2	-0.10712172
196	0x3dbe116d	0.092806675
197	0x3b814ef1	0.003946178
198	0xbd8abd79	-0.0677442
199	0x3dc37c65	0.09545211

lstm2.weight_ih_l0 f4 [256, 50]
0	0xbdd2388e	-0.10264693
1	0xbdabf3dd	-0.083961226
2	0xbdf0a268	-0.117497265
3	0x3d50b89c	0.050957307
4	0xbd5d2abc	-0.053995833
5	0x3def2540	0.11677027
6	0x3d9e35f9	0.07725138
7	0xbc87ce9d	-0.016578013
8	0xbdd14a4e	-0.102192506
9	0x3d90a800	0.070632935
10	0x3d446558	0.04794821
11	0xbce856b6	-0.02836166
12	0xbcf157f8	-0.029460892
13	0x3c105d40	0.008811295
14	0x3c9d3a1e	0.019192751
15	0xbc4f5470	-0.012654409
16	0xbcf227a4	-0.029559918
17	0xbdae77b4	-0.08518925
18	0xbded4c0e	-0.11586772
19	0xbc8a0aa8	-0.016850784
20	0x3d21698c	0.039407298
21	0xbe04de92	-0.12975529
22	0x3d7869f4	0.06064792
23	0xbcc4a33f	-0.024003623
24	0xbe060ac2	-0.13090041
25	0x3cd09598	0.025461957
26	0x3d5930a4	0.053024903
27	0xbd5965e4	-0.053075686
28	0xbcbff72e	-0.023433294
29	0xbd9d5e67	-0.076840214
30	0x3dfd4bbe	0.12367962
31	0x3d3b65c4	0.04575135
32	0xbcdd8981	-0.027043106
33	0x3d6d218c	0.05789332
34	0xbdcdfac6	-0.10057597
35	0xbde1ee2d	-0.110317566
36	0x3c543217	0.0129513955
37	0x3d9eba05	0.07750324
38	0xbd88d4d9	-0.066812225
39	0xbdba6ebc	-0.09103152
40	0xbc9b988b	-0.018993637
41	0x3dfac51d	0.122446276
42	0x3ca221d8	0.019791529
43	0xbd8d8070	-0.06909263
44	0xbd51b2f0	-0.05119604
45	0xbd996317	-0.07489603
46	0xbdfb43a6	-0.12268762
47	0xbde6e8ae	-0.11274849
48	0x3c4c1f40	0.012458622
49	0xbd2a176a	-0.041526236
50	0x3df68788	0.12037569
51	0xbddbd8df	-0.10734724
52	0x3d1a98d8	0.03774342
53	0xbd5f89f8	-0.054574937
54	0x3caef2d0	0.021356016
55	0xbdb3662e	-0.087597236
56	0x3db771f5	0.089572825
57	0x3c1757ab	0.00923721
58	0xbcb05b98	-0.02152805
59	0x3df45296	0.119298145
60	0x3c21df60	0.009879917
61	0x3d078ec1	0.033095125
62	0xbd9df2f0	-0.07712352
63	0x3dbbfa88	0.091786444
64	0xbd9c24a0	-0.07624173
65	0x3db340b6	0.08752577
66	0x3dfbd174	0.122958094
67	0x3d7039a4	0.05864872
68	0x3dc08e5e	0.094021544
69	0x3c53b4b0	0.012921497
70	0xbd8b7aee	-0.06810556
71	0x3d06dd3b	0.032925826
72	0xbdef7c16	-0.116935894
73	0x3b609d4b	0.0034273441
74	0xbd55a9fb	-0.05216406
75	0x3d3e1a6c	0.046411917
76	0x3cbdb558	0.02315776
77	0xbd7e6d24	-0.062115803
78	0xbd16e127	-0.036835816
79	0xbd0c3be7	-0.034236815
80	0xbd264664	-0.040594473
81	0x3de20488	0.110360205
82	0x3dc96564	0.09833792
83	0xbd774b68	-0.060374647
84	0xbca8fa58	-0.020627186
85	0x3ddcdaef	0.10783946
86	0xbd2d6e1d	-0.04234134
87	0xbc629e98	-0.013831757
88	0xbc9c5f45	-0.019088397
89	0xbdfc2440	-0.12311602
90	0x3d8fc0ce	0.070191965
91	0xbdc02fdd	-0.09384129
92	0x3d088d34	0.033337787
93	0x3d598ec4	0.053114668
94	0x3bc45340	0.0059913695
95	0xbd581f3a	-0.052764155
96	0x3cd53038	0.026023969
97	0x3d700b1c	0.058604345
98	0xbd23b28c	-0.039965197
99	0x3d074d90	0.033032954
100	0xbdc81384	-0.09769347
101	0xbd71b425	-0.05900969
102	0xbd99ed76	-0.07515995
103	0x3dff2fb8	0.124602735
104	0x3dc69bcc	0.09697685
105	0x3d41069c	0.047125444
106	0xbe03dca7	-0.12877141
107	0x3d6d9f15	0.05801304
108	0xbd4ef8ac	-0.05053012
109	0xbd416768	-0.047217757
110	0xbd2df6bc	-0.042471632
111	0xbda04a52	-0.078266755
112	0x3dd878d2	0.1056992
113	0xbd05e760	-0.03269136
114	0xbdbc6675	-0.0919923
115	0x3cdf2000	0.027236938
116	0x3db3e8e9	0.087846585
117	0xbc5b3210	-0.013378635
118	0x3c752740	0.014962971
119	0x3c80dfe0	0.015731752
120	0xbd145430	-0.0362131
121	0x3d319d1a	0.043362714
122	0xbdffbcde	-0.124871954
123	0xbd6eef15	-0.058333475
124	0xbde147d8	-0.11000031
125	0xbd6fc8d4	-0.058541134
126	0xbd080070	-0.033203542
127	0x3dd0d914	0.10197654
128	0x3d5ea32a	0.054354824
129	0x3c60ffbe	0.013732849
130	0x3d427d9c	0.04748307
131	0x3d71e958	0.059060425
132	0x3d9a9ad2	0.07549061
133	0x3ded0288	0.115727484
134	0x3d4e7410	0.050403655
135	0xbdcb3fba	-0.09924264
136	0x3d0c1ca9	0.03420702
137	0xbdcce098	-0.10003775
138	0xbca48e91	-0.020087512
139	0x3d64db70	0.055873334
140	0xbca0458a	-0.019564409
141	0xbd23651f	-0.03989136
142	0xbd952f62	-0.07284428
143	0x3c977940	0.018490434
144	0x3dbd0d1a	0.092310145
145	0x3d835273	0.0641221
146	0xbdfd701e	-0.123749
147	0xbd76f40c	-0.060291335
148	0xbd9d1bcc	-0.076713175
149	0x3e021605	0.12703712
150	0x3dc7f814	0.09764114
151	0xbd8c36bb	-0.068463765
152	0xbdd055cc	-0.101726145
153	0x3da1e994	0.079058796
154	0x3d4ef768	0.050528914
155	0xbdfb5b7a	-0.12273307
156	0x3db0a8eb	0.086259685
157	0x3df461b2	0.119326964
158	0x3dff21d4	0.12457624
159	0x3ceef0a8	0.029167488
160	0xbd9fe7c8	-0.07807881
161	0xbc2484c5	-0.01004142
162	0xbd9d750c	-0.076883405
163	0x3d20686c	0.039162084
164	0x3ca26d93	0.01982764
165	0x3ccd5058	0.025062725
166	0xbd284c3d	-0.04108833
167	0x3da7a210	0.08185208
168	0xbbdf7130	-0.006818913
169	0xbddc9030	-0.10769689
170	0x3db2b8f2	0.08726682
171	0x3cd13d37	0.025541885
172	0xbd083420	-0.033252835
173	0x3d8dd8e9	0.06926138
174	0x3d628d8d	0.055310775
175	0xba1c60a0	-0.0005965326
176	0xbd0e91ec	-0.03480713
177	0x3d022080	0.031769276
178	0x3de14c6b	0.11000904
179	0x3db0485f	0.08607554
180	0x3dd9dbea	0.106376484
181	0xbdd8a2cc	-0.10577926
182	0xbd39b71c	-0.045340642
183	0x3d1a192c	0.037621662
184	0x3d7e7e9c	0.062132463
185	0xbcd1e6a3	-0.025622671
186	0x3b5cbd88	0.0033682305
187	0x3d31819a	0.04333649
188	0xbd210546	-0.03931167
189	0x3c0bf640	0.008542597
190	0xbcb8ac74	-0.02254317
191	0xbd11e10d	-0.035615016
192	0xbddeaaf8	-0.108724535
193	0xbd31388c	-0.043266818
194	0x3dd1d8b2	0.102464095
195	0x3d93acb9	0.072106786
196	0x3d85c488	0.06531626
197	0xbdd1fae2	-0.1025293
198	0x3c312f30	0.010814473
199	0xbdb4b08c	-0.08822736
200	0x3dc97110	0.09836018
201	0xbdbd9664	-0.092572
202	0xbdfdddd0	-0.12395823
203	0xbdf25b6a	-0.11833842
204	0xbde9e928	-0.11421424
205	0x3df9dc6e	0.12200247
206	0x3ddc8234	0.10767022
207	0xbd723a18	-0.059137434
208	0xbdadf900	-0.084947586
209	0x3ca129f8	0.019673333
210	0xbd34b2e0	-0.0441159
211	0x3df87640	0.121319294
212	0xbb3fd760	-0.002927266
213	0x3de57082	0.112031
214	0xbdb373d4	-0.08762327
215	0xbdf6c09e	-0.120484576
216	0x3d2fd9cc	0.042932317
217	0x3d8ef60c	0.069805235
218	0x3d4723b8	0.04861805
219	0x3c2daed0	0.010600761
220	0x3db13786	0.086531684
221	0x3a739693	0.00092921517
222	0xbdc099c2	-0.09404327
223	0x3c06d39a	0.008229161
224	0xbd635d3c	-0.055508837
225	0x3c025170	0.0079539865
226	0x3c8def00	0.017325878
227	0x3d01b848	0.031669885
228	0x3d084687	0.033270385
229	0x3cec7893	0.028866088
230	0xbcc73558	-0.024317428
231	0xbbf45a50	-0.007457055
232	0xbd311194	-0.043229654
233	0xbd094888	-0.033516437
234	0xbd306fa0	-0.043075204
235	0xbd0aed05	-0.033917446
236	0x3ce662c2	0.028123263
237	0x3d9b93ae	0.07596527
238	0xbd897762	-0.067122236
239	0xbd679bc0	-0.05654502
240	0x3d912555	0.07087199
241	0xbdc1ed76	-0.0946912
242	0x3dc0219a	0.09381409
243	0xbd2aaf14	-0.041670874
244	0xbd28ad08	-0.04118064
245	0x3d7cd78a	0.06172899
246	0xbcc9dda0	-0.024641812
247	0x3dcc16d6	0.09965293
248	0xbdb85558	-0.09000653
249	0xbd25d9f0	-0.040491045
250	0x3dac9dae	0.084285125
251	0x3e06f414	0.13179046
252	0xbd00dd80	-0.03146124
253	0xbd8f703c	-0.07003829
254	0x3c751ad0	0.014960006
255	0x3d1e77e8	0.03868857

lstm2.weight_hh_l0 f4 [256, 64]
0	0x3d355ed8	0.044279903
1	0x3e074d7a	0.13213149
2	0xbd8f5112	-0.06997885
3	0xbd32c8f6	-0.043648683
4	0xbdcd5b54	-0.10027185
5	0x3dbfab05	0.09358791
6	0xbdfe1e79	-0.12408156
7	0x3db28a24	0.087177545
8	0x3d1f8b02	0.038950928
9	0xbd92ba51	-0.07164443
10	0xbde2c026	-0.11071806
11	0x3dd51bbd	0.10405681
12	0x3c90f468	0.017694667
13	0x3c69d0b9	0.014270955
14	0xbdc87a35	-0.09788934
15	0xbdae3ab1	-0.08507288
16	0xbe05e64d	-0.13076134
17	0xbd6fb65e	-0.05852353
18	0x3dbf6231	0.093449004
19	0xbcc98751	-0.024600657
20	0x3cc0b7a3	0.023525065
21	0x3c9c9c0d	0.01911738
22	0xbd4b35fb	-0.049612027
23	0x3decb779	0.11558432
24	0x3cd1f61b	0.025630048
25	0xbde33a7a	-0.11095138
26	0x3cedc4ab	0.029024443
27	0xbddd6a41	-0.10811282
28	0xba953566	-0.0011383712
29	0xbbbba059	-0.005725902
30	0xbcc23721	-0.023707928
31	0x3dd58b33	0.10426941
32	0xbd332cfa	-0.043744065
33	0x3d8de628	0.069286644
34	0xbde8db0d	-0.113699056
35	0x3d8ec0b7	0.06970351
36	0x3cad083f	0.021122096
37	0xbad38c43	-0.0016139824
38	0x3ca6d7a6	0.020366501
39	0xbcb22f1c	-0.02175098
40	0xbd1a23fa	-0.037631966
41	0x3d831e0c	0.06402215
42	0x3e06a930	0.13150477
43	0x3de38451	0.11109222
44	0xbd8eddf6	-0.069759294
45	0x3da919ca	0.08256872
46	0x3d0d96ad	0.034567524
47	0x3c170f61	0.009219975
48	0x3de3243a	0.11090894
49	0xbdf90d7a	-0.121607736
50	0xbd296184	-0.041352764
51	0xbaa0399c	-0.00122242
52	0x3d8dff71	0.06933487
53	0xbda0a11b	-0.078432284
54	0x3db36a31	0.08760489
55	0xbe09d9e5	-0.13462026
56	0x3d8ba053	0.06817689
57	0x3dc65dfb	0.09685894
58	0xbdd4ad81	-0.10384656
59	0xbd178cb3	-0.036999416
60	0x3df573e9	0.11984999
61	0x3bd6700b	0.0065441183
62	0xbce2ed2c	-0.027700983
63	0xbcc6ff6f	-0.024291722
64	0x3ac53e3f	0.0015048458
65	0xbcda47e2	-0.026645605
66	0xbdedcd7f	-0.11611461
67	0xbdf5a43d	-0.119942166
68	0x3dc2821c	0.09497473
69	0xbcc0af39	-0.023521053
70	0x3dbec23e	0.093143925
71	0xbd9ee2ea	-0.07758124
72	0xbdf980be	-0.12182759
73	0xbc19f9c1	-0.009397925
74	0xbdaa2c3c	-0.08309218
75	0xbdf22af0	-0.11824596
76	0xbdd7d693	-0.10538974
77	0x3d25ffe0	0.040527225
78	0xbd21ec61	-0.03953207
79	0x3dd5a052	0.10430969
80	0xbd5c2464	-0.053745642
81	0x3dc1a3af	0.09455048
82	0xbd5c9ef1	-0.053862516
83	0x3d2bf982	0.041985996
84	0x3df12a33	0.11775627
85	0xbdbb0a6c	-0.09132847
86	0xbdd912d6	-0.10599296
87	0x3d3e0277	0.04638907
88	0x3992b321	0.00027980751
89	0xbd354a6b	-0.044260424
90	0x3d84986f	0.06474387
91	0xbd31bf7f	-0.043395516
92	0x3d8718ec	0.0659655
93	0xbdd46596	-0.103709385
94	0x3d271073	0.04078717
95	0xbdd7f59d	-0.10544894
96	0xbd4de012	-0.05026252
97	0xbabbcd5f	-0.0014328173
98	0x3d88edd0	0.06685984
99	0xbdcb78b2	-0.0993513
100	0xbd9dcd17	-0.077051334
101	0x3d8944ef	0.06702601
102	0xbd991d8b	-0.07476338
103	0x3d5f12a3	0.054461133
104	0xbdab7dd5	-0.0837361
105	0x3ccae0f8	0.024765477
106	0xbd82767d	-0.06370256
107	0x3dce4221	0.10071207
108	0xbcf0282d	-0.029316032
109	0x3d9c7204	0.07638934
110	0xbcedf022	-0.029045168
111	0xbd33a8a5	-0.043862004
112	0xbd9c0857	-0.07618778
113	0xbcab180e	-0.020885494
114	0x3d10be03	0.03533746
115	0x3db9a79f	0.09065174
116	0x3cd07da7	0.02545054
117	0xbcf0b739	-0.029384242
118	0xbdc47cf2	-0.09594144
119	0x3cad2248	0.02113451
120	0x3d24cd2e	0.040234737
121	0xbd34c7d3	-0.04413588
122	0xbcf7dbc8	-0.030256167
123	0x3d94bcaf	0.07262551
124	0x3dd79f03	0.10528376
125	0x3b174fe0	0.002308838
126	0xbd90bc95	-0.07067219
127	0xbc868ff2	-0.01642606
128	0xbdc02ec1	-0.093839176
129	0x3bd3a58d	0.006458944
130	0xbda913c0	-0.0825572
131	0xbdaa2a6a	-0.08308871
132	0xbb862cdf	-0.0040947045
133	0xbda003d2	-0.07813229
134	0xbda66242	-0.0812421
135	0xbe0a1ca4	-0.13487488
136	0x3dde6080	0.1085825
137	0xbd2e3b86	-0.042537235
138	0x3defc0f9	0.117067285
139	0x3dbb2339	0.091375776
140	0x3d503929	0.050835762
141	0x3c907608	0.017634407
142	0xbd5ab584	-0.053395763
143	0xbdf51076	-0.1196603
144	0x3d828f25	0.06374959
145	0xbde1316b	-0.10995754
146	0xbde37a19	-0.11107273
147	0xbc95433a	-0.018220533
148	0x3c3e6ab2	0.011622118
149	0x3cc9274e	0.024554875
150	0x3cd72edf	0.026267467
151	0x3ce5748a	0.028009672
152	0xbd7a05ce	-0.061040692
153	0x3dbf2c48	0.09334618
154	0xbd9b8cc2	-0.07595207
155	0xbdad2e7f	-0.08456134
156	0xbd103d11	-0.035214487
157	0xbdbd4ae7	-0.09242802
158	0xbbde37e1	-0.0067815636
159	0x3d91ffb9	0.07128853
160	0xbd980ced	-0.074243404
161	0x3d5ac5ff	0.05341148
162	0x3daf9088	0.08572489
163	0xbdd4841b	-0.103767596
164	0xbd213334	-0.03935547
165	0x3cbe5ef2	0.023238633
166	0x3dc9352d	0.098245956
167	0x3dba01ea	0.09082396
168	0xbdb185d9	-0.086681075
169	0xbb9c9cd0	-0.0047794357
170	0xbbb2fa2b	-0.0054619513
171	0xbc27707e	-0.010219691
172	0x3de49614	0.11161438
173	0x3d54d75f	0.051963206
174	0x3d82895f	0.06373858
175	0xbcc22444	-0.023698933
176	0x3de5c3ab	0.11218961
177	0xbe032ff8	-0.12811267
178	0xbdbcdbf4	-0.0922164
179	0x3d8d7aa5	0.06908158
180	0xbca5d3b5	-0.020242551
181	0xbd0230a5	-0.031784672
182	0x3dca3779	0.09873862
183	0xbdebc8b3	-0.1151289
184	0x3ca76753	0.020435011
185	0x3db02713	0.08601203
186	0xbe0355a1	-0.12825634
187	0xbd54775a	-0.051871635
188	0x3dacc72f	0.08436429
189	0xbd098ebd	-0.03358339
190	0xbe0256cb	-0.12728421
191	0xbdbc9cba	-0.09209581
192	0x3bd03355	0.0063537755
193	0xbddc249e	-0.10749172
194	0x3dcd5724	0.100263864
195	0x3d010af4	0.031504586
196	0xbd755382	-0.059894092
197	0xbddd8a27	-0.10817366
198	0xbdb2139d	-0.08695147
199	0xbd273833	-0.04082508
200	0xbde46085	-0.11151222
201	0xbce8f6da	-0.02843802
202	0x3decc4d7	0.11560982
203	0x3e010cb0	0.12602496
204	0x3d3d6bd4	0.04624541
205	0xbdc53785	-0.0962973
206	0xbd12842c	-0.03577058
207	0x3e002d4d	0.12517281
208	0x3d84eb88	0.064902365
209	0x3cda6bfc	0.02666282
210	0xbda53e95	-0.08068577
211	0x3d1aaaa5	0.037760396
212	0x3b5179ca	0.003196346
213	0x3defd91c	0.11711332
214	0x3d85293c	0.065020055
215	0x3d2fd157	0.04292425
216	0x3d80deba	0.06292482
217	0xba574810	-0.0008212337
218	0x3d39d080	0.045364857
219	0xbdac6e4c	-0.08419475
220	0xbdd20fe9	-0.10256941
221	0x3c159df7	0.0091319
222	0xbd04a0c5	-0.032379884
223	0x3ddf8af4	0.10915175
224	0xbdd5b687	-0.10435205
225	0x3da4f444	0.080544025
226	0xbc35bab4	-0.011091877
227	0x3c0bab86	0.008524781
228	0x3d76e234	0.060274318
229	0x3d81ee7c	0.063443154
230	0xbdaa980f	-0.08329784
231	0xbdf49208	-0.11941916
232	0xbd1f7755	-0.038932163
233	0xbdb8c72b	-0.09022363
234	0xbde46ba4	-0.11153343
235	0x3979fffd	0.00023841854
236	0xbd10f8f0	-0.035393655
237	0x3de32966	0.110918805
238	0x3d9df9f0	0.077136874
239	0xbcfc3086	-0.030784857
240	0xbdf5708a	-0.11984356
241	0xbdb9bf08	-0.090696394
242	0xbd25ed25	-0.04050936
243	0x3dba2884	0.09089759
244	0xbd801d69	-0.062556095
245	0xbd8a0197	-0.067385845
246	0x3da7ff68	0.08203012
247	0xbdd2aa0c	-0.1028634
248	0xbdc38936	-0.09547655
249	0x3df4166f	0.11918341
250	0xbdcfe5d2	-0.101512566
251	0xbc65f8a5	-0.014036332
252	0xbd73ded5	-0.05953868
253	0x3db79b3b	0.08965155
254	0x3dc373b2	0.095435515
255	0xbcfff73f	-0.031245826

lstm2.bias_ih_l0 f4 [256]
0	0x3e017571	0.12642457
1	0xbd84224d	-0.06451855
2	0x3c72c3df	0.014817207
3	0x3b0dea4b	0.0021654542
4	0x3dea2e7c	0.114346474
5	0xbde3f703	-0.11131098
6	0xbcbf5476	-0.023355704
7	0x3cf5bba7	0.029996706
8	0xbcff44dd	-0.031160766
9	0x3d226757	0.039649334
10	0x3d203a64	0.039118186
11	0x3d864477	0.065560274
12	0x3d76945e	0.060200088
13	0xbd820ad3	-0.06349721
14	0x3dfeec0e	0.124473676
15	0x3d8c6cf6	0.0685672
16	0x3c5e3a7d	0.013563749
17	0xbd202cb7	-0.039105143
18	0x3dfb774c	0.122786134
19	0x3ddb1e2f	0.106991164
20	0xbd1f00b1	-0.03881902
21	0xbdc92bd2	-0.09822811
22	0xbc10332b	-0.008801262
23	0x3dff262f	0.12458455
24	0x3d8a97d8	0.06767243
25	0x3dfcca53	0.12343278
26	0xbde45783	-0.11149504
27	0x3d3566e9	0.044287596
28	0x3d24019c	0.040040597
29	0xbb899ae3	-0.004199372
30	0x3d99ef61	0.07516361
31	0x3df42c9b	0.1192257
32	0x3dd11769	0.10209543
33	0x3daf0789	0.08546359
34	0xbdb822be	-0.089910015
35	0x3c34c6df	0.011033743
36	0xbdd1114d	-0.10208378
37	0x3df87958	0.121325195
38	0x3e0026e3	0.12514834
39	0xbb982cd5	-0.0046440163
40	0x3d05ce03	0.03266717
41	0xbc2b906f	-0.010471447
42	0x3d9b6aab	0.07588705
43	0x3cce45fc	0.025179856
44	0xbbc52af5	-0.006017084
45	0x3df40099	0.119141765
46	0xbb551685	-0.0032514643
47	0x3e01403a	0.12622157
48	0x3d47e14f	0.048798855
49	0x3df491fa	0.11941905
50	0x3d13a224	0.0360433
51	0x3d0394f9	0.032124493
52	0xbdaea6eb	-0.08527931
53	0x3dcbae78	0.09945387
54	0x3dc9c0cb	0.098512255
55	0xbd032696	-0.03201922
56	0xbdb6ca29	-0.08925278
57	0xbd931d04	-0.07183269
58	0x3d9e57e4	0.077316076
59	0xbd956ae3	-0.07295778
60	0xbde5b295	-0.112157024
61	0xbdafddce	-0.08587228
62	0x3c270567	0.010194159
63	0x3e003fb5	0.12524302
64	0xbccf5c16	-0.025312465
65	0x3c9c26bb	0.019061437
66	0xbd31968a	-0.043356456
67	0xbcf04dcf	-0.029333977
68	0x3dcee91d	0.101030566
69	0x3d2524ba	0.04031823
70	0xbd24a2d2	-0.04019434
71	0x3dc318b3	0.095261954
72	0xbda4cead	-0.08047233
73	0xbdc7dbd6	-0.09758727
74	0x3db5c300	0.08875084
75	0x3dee09e6	0.11622982
76	0x3db53a38	0.08848995
77	0xbd6191b8	-0.05507061
78	0xbd1e8edb	-0.038710456
79	0xbda96250	-0.08270705
80	0x3d3d7d42	0.046262033
81	0x3de50a98	0.11183661
82	0xbd67a670	-0.05655521
83	0x3d56db93	0.052455496
84	0x3da11c53	0.078667305
85	0xbdd750c9	-0.105134554
86	0x3de794b0	0.11307657
87	0x3d3e7476	0.046497785
88	0x3e04b2c8	0.12958825
89	0xbcf5153c	-0.029917352
90	0xbd822277	-0.0635423
91	0xbdc65132	-0.096834555
92	0xbd1aa3d8	-0.03775391
93	0x3b09a0c0	0.0021000355
94	0x3c223e5a	0.009902561
95	0xbd19b96e	-0.037530355
96	0xbdad4859	-0.08461065
97	0xbdb16817	-0.08662432
98	0x3c0ceb19	0.0086009735
99	0x3d7a4354	0.061099365
100	0x3d08c4b7	0.033390727
101	0x3dd55e29	0.1041835
102	0x3da7d001	0.081939705
103	0x3d5fd090	0.05464226
104	0x3d80e9a9	0.06294567
105	0x3decfe66	0.1157196
106	0xbd0367f6	-0.032081567
107	0x3dae73cc	0.0851818
108	0x3dda1ff2	0.10650624
109	0xbc240283	-0.010010364
110	0x3dfbef11	0.12301458
111	0xbdb80c8f	-0.0898677
112	0xbdd3c233	-0.10339775
113	0x3db61ad0	0.08891833
114	0x3d462465	0.048374552
115	0xbdd4cbc8	-0.10390431
116	0xbce1e4b5	-0.027574876
117	0x3d1eb3ed	0.03874581
118	0xbc938e3a	-0.018012155
119	0x3c13a020	0.009010345
120	0x3c90bac9	0.017667191
121	0xbc7655d6	-0.015035113
122	0x3da39b2c	0.07988581
123	0xbd2f38e1	-0.042778853
124	0x3d8e8bd0	0.06960261
125	0xbdbb88a3	-0.09156921
126	0x3d929092	0.07156481
127	0x3d83952a	0.06424935
128	0xbdf0b19e	-0.11752628
129	0x3dcc4640	0.099743366
130	0xbb9d6dad	-0.004804334
131	0xbca69fb0	-0.020339817
132	0x3df7ffc0	0.12109327
133	0x3dc9ba2c	0.098499626
134	0xbda8847f	-0.082283966
135	0x3d60f79d	0.054923642
136	0xbdd5e116	-0.10443322
137	0xbd9de7a1	-0.07710195
138	0x3d1a1ee6	0.037627123
139	0xbdc14e3f	-0.094387524
140	0xbda4c982	-0.08046247
141	0x3bc7c1cf	0.006096102
142	0xbdcbc366	-0.09949379
143	0x3db45cb1	0.08806742
144	0xbd68817d	-0.056764115
145	0xbd9bb803	-0.07603457
146	0xbdc22136	-0.09478991
147	0x3da20d84	0.07912734
148	0xbd53a176	-0.051667653
149	0xbdd5d282	-0.10440542
150	0x3d818a1b	0.0632517
151	0x3df2ba91	0.11851991
152	0x3bed8ff0	0.0072498247
153	0xbdbb8e01	-0.091579445
154	0xbdb227a5	-0.08698968
155	0xbcbc7642	-0.023005608
156	0x3d4de51a	0.050267316
157	0x3ddea9d2	0.108722344
158	0x3d9f790a	0.07786758
159	0xbde6f72e	-0.112776145
160	0x3d8be514	0.068308026
161	0x3d62df3d	0.055388678
162	0xbdbd7150	-0.09250128
163	0x3e08e622	0.13369039
164	0x3c291dd7	0.010322056
165	0x3d282836	0.041053973
166	0xbddd73c9	-0.108131
167	0x3d8444cc	0.064584345
168	0x3d29bde9	0.041440878
169	0x3c891634	0.01673422
170	0x3ccbc26d	0.024872983
171	0xbbfe4907	-0.0077601704
172	0xbccc5a86	-0.024945509
173	0x3c8a6cf1	0.01689765
174	0xbd9130c2	-0.07089378
175	0x3de56304	0.11200526
176	0x3b834cc2	0.004006953
177	0x3b8a747b	0.0042253113
178	0xbd971341	-0.07376719
179	0x3d74cfcc	0.059768483
180	0xbd6a6f56	-0.057235084
181	0xbdcb7cac	-0.09935889
182	0xbd8119a7	-0.06303721
183	0xbc632076	-0.01386272
184	0xbdd1528c	-0.10220823
185	0x3dacb16a	0.084322765
186	0xbb8e4389	-0.004341547
187	0xbd3ac2cc	-0.04559593
188	0x3e00a3bc	0.1256246
189	0xbe01b792	-0.12667683
190	0xbd41dda7	-0.047330525
191	0x3cb03ed0	0.021514326
192	0x3d742adf	0.059611198
193	0x3d6eb2a9	0.058275852
194	0xb9c8549f	-0.0003821002
195	0xbd747723	-0.05968393
196	0x3d3e83e8	0.046512514
197	0xbdb276fd	-0.087141015
198	0x3ce9cd43	0.02854026
199	0x3c4e4938	0.012590699
200	0x3c1771f5	0.009243478
201	0xbd0e94d8	-0.034809917
202	0x3dc0f03b	0.0942082
203	0x3d16f910	0.03685862
204	0x3d211c80	0.03933382
205	0x3dcb9b68	0.09941751
206	0x3dd042c5	0.10168985
207	0x3df71787	0.12065034
208	0x3de8e77d	0.11372278
209	0x3c907c3a	0.01763736
210	0x3de4548e	0.1114894
211	0x3dd9cf13	0.106351994
212	0xbde1e828	-0.110306084
213	0x3c6675d3	0.014066177
214	0x3c4d1bb6	0.012518814
215	0x3dcdea25	0.10054425
216	0x3c8a4cf1	0.016882392
217	0xbdbd2f20	-0.09237504
218	0x3d63611b	0.05551253
219	0xbdeb9f78	-0.115050256
220	0x3dc78bf0	0.09743488
221	0x3d138bd4	0.036022022
222	0xbc1b3354	-0.009472687
223	0xbc1593c8	-0.009129472
224	0xbd21cc84	-0.039501682
225	0xbdd3819c	-0.103274554
226	0xbdb52ae0	-0.088460684
227	0x3d86dbb3	0.06584873
228	0x3d658299	0.05603275
229	0xbdcaeb1e	-0.09908126
230	0x3dc14ca5	0.09438447
231	0x3d9cfa87	0.07664972
232	0x3d3d36bc	0.046194777
233	0x3db326b4	0.087476164
234	0xbc6d2f37	-0.014476589
235	0x3d5e4c16	0.05427178
236	0x3c714e4e	0.014728142
237	0x3cbaa28a	0.022782583
238	0x3d0c590c	0.03426461
239	0xbdc6cad4	-0.09706655
240	0x3c6f3e54	0.0146022625
241	0xbd7e2cf5	-0.062054593
242	0x3df87eb0	0.12133539
243	0xbd6f2dcd	-0.05839329
244	0xbbd3a40a	-0.006458764
245	0x3ddf68f4	0.1090869
246	0xbcf2893f	-0.02960646
247	0x3e023886	0.12716874
248	0xbe009f23	-0.12560706
249	0x3dce129f	0.100621454
250	0xbc6e3208	-0.014538296
251	0xbc32b99a	-0.010908509
252	0x3db97e09	0.090572424
253	0x3dca99be	0.09892605
254	0xbd67b52e	-0.05656927
255	0xbd832e6b	-0.06405338

lstm2.bias_hh_l0 f4 [256]
0	0x3c8076e2	0.015681688
1	0xbd99731b	-0.07492658
2	0xbdc76098	-0.09735221
3	0xbdb106cd	-0.08643875
4	0xbd32d32c	-0.04365842
5	0xbd9624d9	-0.07331247
6	0x3deba773	0.11506548
7	0xbd91c54d	-0.0711771
8	0x3d904d11	0.07045949
9	0x3cfecd67	0.031103803
10	0x3e002051	0.12512328
11	0x3d68ac5c	0.056805
12	0x3dbd2440	0.0923543
13	0x3d23451a	0.039860822
14	0xbde13fa2	-0.10998465
15	0xbd263f9d	-0.04058801
16	0x3ddc7951	0.10765327
17	0xbde052d7	-0.109533004
18	0xbcfefb81	-0.031125786
19	0x3cc85144	0.024452813
20	0x3d9fed21	0.078089006
21	0xbbba7dd9	-0.0056912717
22	0x3def8f2f	0.11697232
23	0x3e01fd9b	0.12694399
24	0x3de46052	0.11151184
25	0xbdc59479	-0.096474595
26	0xbd927967	-0.07152062
27	0x3d8e08f9	0.06935305
28	0x3c81a4e8	0.015825704
29	0xbbad5e51	-0.0052907844
30	0xbd4eb153	-0.05046208
31	0xbdd9cd12	-0.10634817
32	0xbce2e08c	-0.027694963
33	0xbcd6e5d1	-0.026232632
34	0x3dc2b926	0.095079705
35	0x3c254dde	0.010089366
36	0x3d8e260f	0.06940853
37	0xbdd98890	-0.1062175
38	0x3d0a9604	0.033834472
39	0x3df9a365	0.12189368
40	0xbddd9092	-0.1081859
41	0x3de68672	0.11256112
42	0x3dad357d	0.08457468
43	0xbc23b82c	-0.00999264
44	0x3dd15272	0.10220803
45	0x3e05f2a5	0.13080843
46	0xbd7bbae1	-0.06145752
47	0x3dccee3f	0.10006379
48	0xbd2409b5	-0.04004832
49	0x3dd36210	0.10321438
50	0xbd744139	-0.059632514
51	0xbd9ecd57	-0.07754009
52	0x3d61bc98	0.055111498
53	0xbdbb59b6	-0.091479704
54	0x3d5af103	0.053452503
55	0xbd38f7cf	-0.045158204
56	0xbdaf84f5	-0.085702814
57	0xbd44b950	-0.04802829
58	0x3d769018	0.060196012
59	0xbd12357e	-0.035695545
60	0xbdd681fb	-0.104740106
61	0x3d8d3568	0.06894952
62	0xbdc6aa54	-0.09700456
63	0x3c82a1b0	0.01594624
64	0x3bea02ac	0.007141432
65	0x3dc854dc	0.09781811
66	0x3de4bab8	0.11168426
67	0x3d871a15	0.06596772
68	0x3cf920d4	0.030411161
69	0x3e08beb1	0.13353993
70	0x3dacfac8	0.0844627
71	0x3c89a269	0.016801076
72	0xbddb0fbf	-0.10696363
73	0xbd166d3b	-0.036725264
74	0x3d0aab72	0.03385491
75	0x3d148831	0.036262695
76	0xbd307a3d	-0.043085326
77	0xbdaef139	-0.08542103
78	0x3da2ea1d	0.0795481
79	0x3d841281	0.06448842
80	0xbdf591c8	-0.11990696
81	0xbd585247	-0.05281284
82	0xbd254c31	-0.040355865
83	0x3db9318e	0.09042655
84	0x3df9226b	0.12164768
85	0x3e03dc5b	0.12877028
86	0x3ce1ba98	0.027554795
87	0xbb07f5d6	-0.0020745895
88	0xbd427ad2	-0.04748041
89	0xbd81bb82	-0.063345924
90	0xbc90cb9f	-0.01767522
91	0xbdcf7149	-0.10129029
92	0x3c8ca38b	0.017167827
93	0xbdc5239e	-0.09625934
94	0xbd1f6752	-0.038916893
95	0xbdc549e5	-0.09633235
96	0xbd3458e9	-0.044030104
97	0x3ca0e5b8	0.019640788
98	0xbd15e53e	-0.036595576
99	0x3d32f154	0.04368718
100	0x3d948578	0.0725202
101	0xbde1d690	-0.11027253
102	0x3d88e158	0.06683606
103	0x3dac34c1	0.084084995
104	0x3cc9c95a	0.024632145
105	0xbd27cdda	-0.0409678
106	0x3bc8160c	0.006106144
107	0xbd3abb4f	-0.045588788
108	0x3d6352ec	0.055499002
109	0xbdbb4256	-0.09143512
110	0xbdd5a545	-0.10431913
111	0xbd0c1f6f	-0.034209665
112	0x3dcfd3fc	0.10147855
113	0xbdb74272	-0.0894822
114	0x3d99b69b	0.07505532
115	0xbd9c4587	-0.07630449
116	0xbd6030a9	-0.054733906
117	0x3daaecbc	0.08345935
118	0x3cdb1cec	0.02674719
119	0x3d1014f0	0.035176218
120	0xbda00718	-0.07813853
121	0xbd9f78f3	-0.07786741
122	0xbd828a54	-0.0637404
123	0xbd3e0a79	-0.046396706
124	0x3da30fc3	0.07961991
125	0x3ddc79cb	0.10765418
126	0xbd407ec4	-0.046995893
127	0xbddd2226	-0.10797529
128	0xbdf51654	-0.119671494
129	0x3d850356	0.06494777
130	0x3d1c2109	0.038117442
131	0x3e005564	0.12532574
132	0xbd9f281c	-0.07771322
133	0xbc6801d6	-0.014160594
134	0xbdd59825	-0.1042941
135	0xbddcf452	-0.10788788
136	0x3e018a10	0.12650323
137	0xbd7c3acb	-0.061579507
138	0xbd14d0a7	-0.0363318
139	0xbddd21a9	-0.10797436
140	0xbddddb06	-0.10832791
141	0xbc6dfe79	-0.014526003
142	0x3dbf1910	0.09330952
143	0xbdfdc359	-0.12390775
144	0xbdb682a4	-0.089116365
145	0xbdb64065	-0.08899001
146	0xbd4f778c	-0.05065112
147	0x3db0abfa	0.08626552
148	0x3abe6e71	0.0014528764
149	0x3df58a76	0.119893
150	0x3ddb1fbd	0.10699413
151	0x3d34bd1e	0.04412567
152	0xbdca56cf	-0.09879839
153	0x3d7ded4e	0.06199389
154	0x3d33adf1	0.043867055
155	0x3c88d802	0.016704563
156	0x3d2b2f3f	0.041793104
157	0xbd3229f1	-0.04349703
158	0x3d16ca97	0.0368143
159	0x3cd8a41f	0.026445447
160	0x3a205e25	0.0006117544
161	0x3dfe8d5a	0.124293044
162	0xbd97958c	-0.07401571
163	0x3d2932cb	0.041308206
164	0x3c3de889	0.011591085
165	0x3da157fb	0.07878109
166	0xbe01b242	-0.12665656
167	0xbda9a3bc	-0.08283183
168	0x3c69858a	0.01425303
169	0x3d09a6f4	0.033606485
170	0xbce68e46	-0.028144013
171	0xbceed9f7	-0.029156668
172	0x3cdb8250	0.026795536
173	0xbd1aee06	-0.037824653
174	0xbd30d69f	-0.04317343
175	0xbdef93ce	-0.116981134
176	0xbc2d8f67	-0.010593272
177	0xbd9cebf2	-0.076621905
178	0x3d44bfb1	0.048034374
179	0xbda138d8	-0.0787217
180	0x3dae65fd	0.085155465
181	0x3ce752fa	0.028237808
182	0xbdcd4af6	-0.10024063
183	0xbd836503	-0.06415751
184	0x3dc66196	0.09686582
185	0xbdaeeb00	-0.085409164
186	0xbb96c9bb	-0.004601685
187	0xbcc66654	-0.024218716
188	0x3def44a2	0.116830125
189	0x3ca4e0eb	0.02012678
190	0xbd6e8f04	-0.05824186
191	0x3db27af4	0.08714858
192	0xbb6dc663	-0.0036281578
193	0xbdd9b07f	-0.10629367
194	0xbd9f7f46	-0.07787947
195	0xbd08ceb9	-0.03340027
196	0xbd95916d	-0.073031284
197	0x3dd1cbf1	0.10243977
198	0xbdc2e80f	-0.09516918
199	0xbd5f3727	-0.054495957
200	0xbddd3c72	-0.10802545
201	0x3d5e5d9a	0.054288484
202	0x3db1a251	0.086735375
203	0x3c8ac04d	0.0169374
204	0xbc343eb4	-0.011001278
205	0x3d2a519d	0.04158174
206	0x3d32f65e	0.043691985
207	0x3d189012	0.03724677
208	0x3dc3479f	0.09535145
209	0x3df5dffc	0.12005612
210	0xbc8c2250	-0.017106205
211	0xbcd26128	-0.025681093
212	0xbb886af6	-0.0041631414
213	0xbda4cee7	-0.08047276
214	0x3d62b533	0.055348586
215	0xbdc0c593	-0.09412684
216	0x3dc752a0	0.09732556
217	0x3df6f854	0.120590836
218	0x3ca4b7c7	0.020107163
219	0x3dda109f	0.106477015
220	0xbda2a398	-0.07941359
221	0xbda6dfb7	-0.08148139
222	0xbdc3fa95	-0.09569279
223	0x3d45bfc8	0.0482786
224	0xbdeec4b4	-0.11658612
225	0x3dab21a5	0.083560266
226	0xbd91f2d2	-0.071263924
227	0xbc9a8f69	-0.018867211
228	0xbd977a85	-0.073964156
229	0x3dc1eb51	0.09468711
230	0xbdb088f3	-0.08619871
231	0xbd81c553	-0.06336465
232	0x3dc3567d	0.09537981
233	0x3ceb4a86	0.028722059
234	0x3dbb943a	0.09159131
235	0x3d24902d	0.04017656
236	0x3db35ca4	0.08757904
237	0x3c98d379	0.018655526
238	0xbdcba2f0	-0.09943187
239	0xbdc18add	-0.09450314
240	0xbd36a139	-0.044587348
241	0x3df8fac8	0.12157208
242	0xbd585edd	-0.052824844
243	0xbd2b5839	-0.041832183
244	0x3c1b4fc2	0.009479465
245	0x3d7a65d7	0.06113228
246	0xbcd663cd	-0.026170636
247	0xbdd28ab9	-0.102803655
248	0xbe00ab08	-0.12565243
249	0xbc62bfec	-0.013839703
250	0x3d4c1fec	0.04983513
251	0x3d6f57e1	0.058433417
252	0xbd0d001c	-0.034423932
253	0x3d03e8d1	0.032204453
254	0x3d5cc64b	0.053900044
255	0x3d55b55c	0.05217491
