lstm预测Google股票价格/best_model/best.pth (torch, 251278 bytes, 10 tensors)

conv1.weight f4 [6, 3, 5, 5]
00000000: 5b23 85bf f36c 75bf fd7d babe 4d88 09bf
00000010: 91ff b6bf dd8c dcbf 5891 afbf 68dd 9ebf
00000020: f431 a3bf e679 d2bf c1d3 98bf 5e8b 40bf
00000030: 1152 5dbf dc49 78bf 570a 6dbf 6969 b6bf
00000040: 75f1 93bf 4ddf a7bf 7370 9ebf 704e 54bf
00000050: 702d 22be 9c0a 10bf 8c70 d5be ea86 8fbe
00000060: 324d 22bf fd5e 203e 1b86 c13e b1f2 be3e
00000070: 4a4e 8d3e a43a d4be a366 0fbf 5828 f1be
00000080: 01ae 1fbf 6701 29bf 476e 69bf 1839 16bd
00000090: 78a7 f5bd ff82 d2be 7114 dcbe 934f fcbe
000000a0: d82a 33bf 4dee 0fbf d0ee 66bf 3431 56bf
000000b0: d41d 48bf f86c b9be 10bb 1bbf 391e 32bf
000000c0: 9d2f 1cbf 5cd4 84bf c860 d03f 801c f63f
000000d0: da88 0b40 31f5 f33f c48c 9f3f 7157 203f
000000e0: 55b5 623f 7b55 943f c18c 4e3f 6fee 333f
000000f0: e1e9 5f3f 4674 ad3f 7af2 be3f adac 993f
00000100: 9ff2 c33f 8e12 bf3e 6587 5d3f bf6c 6d3f
00000110: 2460 953f 04b1 b93f 58df 403f 77de 493f
00000120: 4c4f 8e3f d749 c73f 9c2b ca3f 73b5 43bf
00000130: 9d79 22bf 6bca 0ebf c356 4ebd 5349 953f
00000140: 0aef 4dbf 0787 60be 5ba8 243f 88e6 d2bc
00000150: c973 393f c527 303d 9e3a e7bf 124a d6be
00000160: e7d2 493f b4f4 e03e 6e3c 54bf 7563 05bf
00000170: bfd5 a3bd a2e9 c13f 7fa2 4b3e 4208 87be
00000180: 1877 cebe 70c7 0abe 8b70 3b3f a0f1 27bf
00000190: 171c 38c0 5250 cfbf 02bb f1bf a276 28c0
000001a0: 8c7a 22c0 6c65 f5bc b53f ad3f 22a2 b53f
000001b0: 7a46 1ebf 94a1 debf 5436 da3f aa5a 433e
000001c0: 34cf 343f 7da8 c13e 808e 0dc0 151d 383f
000001d0: 4ac4 a03f 3b69 813f 91c6 723f ec9f 1dc0
000001e0: bfa9 e13f 145d bd3f 279e 9f3f d758 763f
000001f0: 9d15 17c0 59f0 b4bf 8329 f0be 72b5 34bf
00000200: 0d21 e1be ede9 b53e ae11 a93e b095 983f
00000210: dd5d 743f be49 ed3d 02c6 6c3e 46c7 063f
00000220: 216d 8ebf 3dd4 2ebf 7fe6 ae3e 035a fdbe
00000230: e1c9 14bf 0ef2 51bf 3b34 19bf b8f4 6a3f
00000240: c106 b5bc 85a2 013f c888 66be b070 51be
00000250: ebd7 a53f c8b3 393f 34c4 14bf 5d9b 71bf
00000260: ac94 63bf 55d7 dfbe 431e 8fbe 9a60 1cbf
00000270: f97a 49bf 8fb9 7bbf b7dd 78bf 1fdf 74bf
00000280: 291c 4bbe de25 1fbf f8b5 60bf 1ec0 34bf
00000290: ceec 36bf d39e 9ebd a49d a8be 8237 f9be
000002a0: afc0 61bf ff69 33bf 6553 1e3f df89 8cbd
000002b0: 3e5d fabe 122a e7be bbf6 0fbf feb6 96be
000002c0: 124d 25bf 9f85 f5be 7ead 87bd f9f2 97bd
000002d0: ec3f 03bf f4f2 efbe 3fdd 86be d727 06be
000002e0: c7af 80be c2c7 afbe f4b3 5bbd 954a 53be
000002f0: b16e 853e 4bd2 83bd 8f51 94be 679e fdbd
00000300: d9e3 56be dc9c 48be 4ceb fdbe c110 30bc
00000310: d5f8 e2be 95ad 24bf 023d 3dbf fa68 78bf
00000320: a7b8 b53e 0994 a1bd 4c9a a83d ef80 553f
00000330: ebbb 8f3f e371 de3e 5a33 bd3e 3592 443f
00000340: f55d a33f 7dd6 9a3f 56bf 493f dc08 843f
00000350: 6b30 ac3f e2a5 d33f a87a c43f db9b a13f
00000360: 5c25 9b3f 5dc0 a83f d7d8 913f 9756 713f
00000370: 04f9 d23f 5c47 9a3f 3345 343f cd19 573f
00000380: d283 c93e 1f20 a4bd d846 22be d7e0 e9bd
00000390: cb6a 15be 05c9 91be 61b3 cabd 832e 74be
000003a0: 330f a8bd f6b8 01be 0d9b 0cbe 428f 4dbe
000003b0: da20 72be 5cc0 09be 3893 babd 17c6 e9bd
000003c0: 4199 8bbd a4fb f4bd b505 e4bd 755a 9dbd
000003d0: fb6a bbbd 8c52 52be ed17 40be 5fea 00be
000003e0: 6604 44be cc83 d9bc 5e91 db3d 5c44 1ebe
000003f0: 5b68 053d 9d60 12be abfb 8abd 25aa e33c
-1.0401415 -0.9586937 -0.36424246 -0.53723603 -1.4296743 -1.7230488 -1.371623 -1.2411318
-1.274962 -1.644345 -1.1939622 -0.7521266 -0.8645335 -0.969877 -0.925939 -1.4250919
-1.1558062 -1.3115021 -1.2378067 -0.82932186 -0.15837646 -0.5626619 -0.4168743 -0.2803262
-0.6339904 0.15661235 0.37797627 0.37294534 0.27598792 -0.4145099 -0.56015986 -0.47101092
-0.62374884 -0.66017765 -0.91183895 -0.036675543 -0.11994833 -0.41115567 -0.42984346 -0.4927946
-0.6998725 -0.56222993 -0.9020815 -0.8366883 -0.78170514 -0.3621595 -0.6083231 -0.69577366
-0.6101015 -1.0377307 1.6279535 1.9227448 2.1802278 1.9059201 1.2464833 0.62633425
0.8855794 1.1588587 0.80683523 0.70285696 0.87466246 1.3551109 1.4917748 1.2005821
1.5308417 0.37318844 0.8653472 0.9274406 1.1669965 1.4507146 0.75340796 0.7885508
1.111795 1.5569409 1.5794559 -0.76448745 -0.6346682 -0.55777615 -0.05037571 1.1663002
-0.8044287 -0.21926509 0.6431939 -0.025744691 0.724423 0.043006677 -1.8064764 -0.41853386
0.78837436 0.43936694 -0.8290471 -0.52104884 -0.07999753 1.5149424 0.19886206 -0.26373488
-0.40325236 -0.13552642 0.732186 -0.65603065 -2.8767145 -1.6196387 -1.8885195 -2.6322408
-2.5387297 -0.029955588 1.3535067 1.4190104 -0.6182629 -1.739306 1.704783 0.19077554
0.70628667 0.3782386 -2.2118225 0.71919376 1.2559903 1.0110239 0.9483424 -2.4628859
1.7629927 1.479403 1.2470139 0.9622931 -2.3606942 -1.4135848 -0.4690667 -0.70589364
-0.43970528 0.35530034 0.330213 1.1920681 0.95455724 0.11586331 0.23122409 0.5264782
-1.1127053 -0.682926 0.3416023 -0.49482736 -0.5812054 -0.8200997 -0.5984532 0.9177966
-0.022097947 0.5063861 -0.22513115 -0.20453143 1.2956518 0.7253995 -0.5811188 -0.9437769
-0.8889873 -0.43718973 -0.27952775 -0.610849 -0.78703266 -0.98330015 -0.9721331 -0.95652956
-0.19834961 -0.62167156 -0.8777766 -0.7060565 -0.71455085 -0.07745137 -0.3293277 -0.48675162
-0.88184637 -0.7008361 0.61846 -0.06862234 -0.48899263 -0.45149285 -0.56235856 -0.29436487
-0.64570725 -0.47953507 -0.06624888 -0.0741939 -0.5126941 -0.46865046 -0.26340672 -0.13101135
-0.25134107 -0.3433209 -0.053638414 -0.2063392 0.26061013 -0.064365946 -0.28968474 -0.123837285
-0.20985354 -0.19591087 -0.4959358 -0.010746182 -0.4433047 -0.64327365 -0.73921216 -0.9703518
0.3549244 -0.078895636 0.08232555 0.8339986 1.1229223 0.43446264 0.3695324 0.76785594
1.2763048 1.2096707 0.7880758 1.0315204 1.3452276 1.6534998 1.5349932 1.2625688
1.2120776 1.3183705 1.1394299 0.9427275 1.6482244 1.2053027 0.7041809 0.84023744
0.39358383 -0.08013939 -0.15847337 -0.11419838 -0.1459152 -0.28473678 -0.09897495 -0.23845868
-0.08206024 -0.12668213 -0.13731022 -0.2007418 -0.23645344 -0.13452286 -0.09110111 -0.11414736
-0.0681634 -0.11962059 -0.11133901 -0.07683269 -0.09151264 -0.20539302 -0.18759127 -0.12589405
-0.19142303 -0.026552103 0.10721086 -0.15455765 0.032570224 -0.14294668 -0.06786283 0.027791092

conv1.bias f4 [6]
00000000: 9098 efc0 2734 1ac1 1b73 f7c0 47ed f7bf
00000010: 4bca 02c1 5dd2 03c1
-7.4873734 -9.6377325 -7.732801 -1.9369286 -8.174388 -8.238858

conv2.weight f4 [16, 6, 5, 5]
00000000: eec2 4fbe e78f 09bf 1721 2dbf cd3c 5fbf
00000010: 6160 c6be a120 01bf 5e2f f4be 27f2 e1be
00000020: 8e4f 1abf 1333 fdbe 434a 5ebe c032 79be
00000030: f7a4 b6bd e289 0abe 5403 07bf 6768 deba
00000040: 3a6d 3fbe d3e5 62bd f935 edbd 6088 74bd
00000050: c070 82bf a5b5 4dbf 4adc 11bf 4ee1 08bf
00000060: 2b0b 3cbf 2db8 4ebe 8304 d4be b71f f1be
00000070: da7c dbbe b067 61be 83c2 43be 0767 5fbe
00000080: adf2 19bf 0ea9 85be bc1d 3c3c c35c 2f3d
00000090: ed5f 77be e64b 7abe 5e68 dcbe 51af acbe
000000a0: d264 fbbe 147d 07bf 0fc0 063f 5660 9c3d
000000b0: 9d2f 8dbe 29e5 c6be a4e9 e5be 3e36 0ebf
000000c0: 349f 1cbf e008 4bbf 6dc4 b6be fd84 3fbe
000000d0: 7ce3 09be f933 febd f2ec 0dbf 33c3 1cbf
000000e0: 341c 43be 713d 0a3d 3d04 803e d158 8bbe
000000f0: 6130 debe d580 2ebe 371e 1bbd 9268 14be
00000100: a131 59be 1664 e9be e4c3 7dbe d8a0 a1be
00000110: 25d4 22be 58aa 8cbe f608 46be 0e39 9bbe
00000120: 7931 0bbf 169a e7be 003c 1dbf 4db0 08be
00000130: 455f e5bd 0c4d 27be 1e06 81be 8410 c7be
00000140: 72c9 4cbd 1775 04be 8bbf fcbc df61 ddbc
00000150: b987 a6bd a21d d23c 4a7f f8bd 0a84 e93c
00000160: 169f 2dbd 821a 1ebe 738e a1bd 648e 20bb
00000170: 365c efbc 08bd ad3b 0edf cdbd f8d6 08be
00000180: d4f3 02be ef72 f3bb 301d e4bd 4fe7 c8bd
00000190: 643f aabf 18bb 12bf 14c0 10bf 1e21 7abf
000001a0: 3dd3 afbe 50e9 cdbe e39e 18bf ffb0 45bf
000001b0: 3422 27bf 0c19 9cbf b8ad 20bf 6c90 e53d
000001c0: e9a1 bbbe aa61 1bbe 47ea 43bf f1bb 1ebf
000001d0: 696e 33bf 7dc2 e6bd 155b 82be a67a a9be
000001e0: e5c9 cebe 74b9 d2be d04c 24be 7372 dfbe
000001f0: ced7 86bf 02d0 48be 0da3 eebd 2f3f 30be
00000200: 0991 56be dc42 c3be 8dc6 0bbf d768 ccbe
00000210: 911c efbd 034a c1be 634b c0be 95d0 d7be
00000220: ce33 51bf 845a 36bf 7678 bfbe 2d96 95be
00000230: 9247 69be 156e b3be 7ae9 fabe 309a ffbe
00000240: 8c67 babe f9d4 d8bd d7c5 8fbe fb46 0abf
00000250: 64e0 a4be ba75 98bd 5ee6 cb3d 94ec e5be
00000260: 6476 2bbf 4e21 49bf aa34 5cbc c805 b9be
00000270: 82f8 9bbc 254a e1be eb47 5bbf 325e cfbe
00000280: 3ca6 53be 0d7f 62be 53ed adbe f827 d9be
00000290: 1a2d 7ebe 926a dbbe ded5 3cbe 6264 b4be
000002a0: 42ea 83be 63b3 fdbe 8c9e 07bf f5b6 94be
000002b0: fd10 b5be 7f37 ddbe 76ae 9bbe f0a9 8bbd
000002c0: f910 12bc 2f0b 78bd 93b7 debd c382 0dbd
000002d0: 6426 c8be c970 72be d88a 11bf f18e dfbe
000002e0: aa38 43be c731 83be c19e 543d e8d6 d1be
000002f0: e65d 6fbe 8149 0ebf e4d0 b2be 8cc1 b0be
00000300: b858 8cbe bd1b 9c3d 8526 d1be d0fa b4bd
00000310: bfec 75be fdbf 943d 3b91 c8be b0ca dabe
00000320: 7dd5 efbe b041 a1be a2bc c9be c8ac c0be
00000330: ff78 e3bd 02d1 b1be 991f 8bbe 002b 3bbe
00000340: 3b15 e3be e32c d9be 295c 1dbe dd78 26bd
00000350: 2599 3e3d 3813 e1bc 9472 af3d dd2a cbbe
00000360: 30fd 7cbe 6e1e 16be eabb d8be 0710 adbd
00000370: 5dbb c0bd b671 80be c31c e3be fad0 dbbe
00000380: 684c 3ebe 505b cbbd 64eb 4938 af4a b4bd
00000390: c871 dbbd 58d4 313c 4626 9cbb 97a6 ccbd
000003a0: a8b1 5ebd 0c74 56bd c270 70bd 0220 68bd
000003b0: 3e75 cd3b 439a c23c 9a4e adbd 9a97 d0bd
000003c0: 8090 97bd debd 6bbd 9ca9 3b3c 8cc8 6dbb
000003d0: 0aec df3c af3d 47bd 241e ad3c 54d9 9fbd
000003e0: 5195 a2bd 8989 45be ed32 3fbf 10a6 0abe
000003f0: f18c d7bd 6502 14bf 17ac 9ebe fac6 51bf
-0.20289204 -0.537352 -0.67628616 -0.8720215 -0.38745406 -0.5044041 -0.47692388 -0.4413006
-0.6027764 -0.4945303 -0.21708016 -0.24335766 -0.08918183 -0.1352916 -0.52739453 -0.001696837
-0.1869401 -0.05539496 -0.1158256 -0.05970037 -1.0190659 -0.8035529 -0.5697676 -0.5346879
-0.7345454 -0.20187445 -0.41409692 -0.4709451 -0.42868692 -0.2201221 -0.19117169 -0.21816646
-0.6013592 -0.2610554 0.011481699 0.042813074 -0.24157687 -0.24443015 -0.43048376 -0.33727506
-0.49100357 -0.5292523 0.5263681 0.07635562 -0.2757539 -0.3884671 -0.44904816 -0.55551517
-0.61180425 -0.7931042 -0.35696736 -0.18703075 -0.13465685 -0.12412257 -0.55439675 -0.6123535
-0.19053727 0.03375 0.25003234 -0.272162 -0.43396285 -0.17041333 -0.037870612 -0.14493015
-0.21210338 -0.45584172 -0.24781758 -0.31568027 -0.15901239 -0.27473712 -0.19339356 -0.30316967
-0.54372364 -0.45234746 -0.6141968 -0.13348503 -0.11199812 -0.16337985 -0.2519998 -0.38879788
-0.0499968 -0.12935291 -0.030853054 -0.027024208 -0.08131356 0.025648896 -0.121336535 0.028505344
-0.042388044 -0.154398 -0.07888498 -0.0024498934 -0.029218774 0.0053020753 -0.1005231 -0.13363254
-0.12788326 -0.0074294726 -0.111383796 -0.098097436 -1.3300595 -0.5731673 -0.5654309 -0.9770678
-0.3434085 -0.40217066 -0.5961744 -0.772232 -0.65286565 -1.2195144 -0.62765074 0.11209187
-0.36646965 -0.15173975 -0.76529354 -0.62005526 -0.7009035 -0.112675644 -0.25460115 -0.33101386
-0.40388408 -0.41157115 -0.16044927 -0.43642005 -1.0534608 -0.19610599 -0.11652193 -0.17211603
-0.20953764 -0.38136947 -0.5459984 -0.39923736 -0.116753705 -0.3775178 -0.37557516 -0.42151323
-0.8171967 -0.71231866 -0.37396592 -0.29216138 -0.22781208 -0.35044923 -0.49006253 -0.49922323
-0.36407125 -0.10587496 -0.28080627 -0.5401456 -0.32202446 -0.074443296 0.099560484 -0.44907057
-0.66977525 -0.78566444 -0.0134402905 -0.36137223 -0.019039396 -0.4400188 -0.85656613 -0.40501553
-0.20668882 -0.22118779 -0.33970127 -0.42413306 -0.24821892 -0.42854744 -0.18440959 -0.35232836
-0.25764662 -0.49550924 -0.529763 -0.29045835 -0.35364524 -0.43206403 -0.3040654 -0.068195224
-0.008915179 -0.06055754 -0.10874858 -0.034548532 -0.3909179 -0.23675837 -0.56852484 -0.43663743
-0.19064584 -0.25623915 0.051909212 -0.40984273 -0.23375663 -0.5558091 -0.34924996 -0.34522665
-0.27411437 0.07622478 -0.408497 -0.08836901 -0.24016093 0.07263181 -0.39173302 -0.42732763
-0.46842566 -0.31495428 -0.39401728 -0.37631822 -0.111070625 -0.34729773 -0.27172545 -0.18278122
-0.44352135 -0.42417058 -0.15367188 -0.040642608 0.04653277 -0.027474985 0.08566776 -0.3968114
-0.24705958 -0.14660046 -0.42330867 -0.084503226 -0.09410737 -0.25086755 -0.4435788 -0.42932874
-0.18583834 -0.09929526 4.814136e-05 -0.08803307 -0.107150614 0.010853849 -0.0047653047 -0.09992712
-0.054368645 -0.052356765 -0.058701284 -0.05667115 0.00627008 0.023755198 -0.08462258 -0.10185166
-0.07400608 -0.05755412 0.011454012 -0.0036282865 0.027334232 -0.04864281 0.021132536 -0.07805124
-0.07938636 -0.19290747 -0.7468708 -0.1353991 -0.10524929 -0.57816154 -0.3099067 -0.8194424

conv2.bias f4 [16]
00000000: 00ae 05bf fbf9 44bf 6b23 afbf ff99 5cbf
00000010: ff05 30bd 35de 6ebe 074f dcbf fdc7 a1be
00000020: bdd1 833f 0191 8dbf ae26 663f b413 1cbe
00000030: d4b2 2dc0 c408 76bf 4cf5 2dbf 9dd6 efbe
-0.5221863 -0.7694394 -1.3682684 -0.8617248 -0.04297447 -0.23326953 -1.7211617 -0.3159789
1.0298382 -1.1059877 0.8990277 -0.15241891 -2.7140398 -0.96107125 -0.6795242 -0.46843424

fc1.weight f4 [120, 400]
00000000: 967e 803d e285 233d ead7 033e 1b56 bdbd
00000010: 5237 9bbc b459 42bd 7e6b b6bd cd75 76be
00000020: 6487 88be 963c 6ebd 33e9 3a3d c63d 28be
00000030: f6fa e7bd c12a 3ebe 3cce 913e a5d5 a43d
00000040: d8c2 2e3e 561b 3abe 07f3 863d 9948 1a3e
00000050: dcf6 42be 5e77 a63c 4a98 0ebc 8350 7dbb
00000060: 6907 993e 1916 6abd 80ae 78bd f0f3 8dbd
00000070: 1934 35be d075 4d39 cf23 823e 5b93 06bd
00000080: c9d6 7bbd 2aaa 27be ca21 1ebe 9fd6 083e
00000090: e43a e2bd 5f99 fcbd 6126 c8be f0c8 e5bd
000000a0: 64d5 4d3e 4ba9 4ebe adb2 f8bd 59e0 013d
000000b0: c4fb 3dbd 17c8 043d 1872 a13e 7327 48be
000000c0: 7d69 85bd b494 46be 6035 9c3d f556 4fbe
000000d0: f603 e9bd 52db 4b3e 6513 ea3d e1ca 81bd
000000e0: 337d 95be 26ae 86be 1d40 bdbd 9480 6dbd
000000f0: 0b6d 92bd d4fd 273d a093 e7bd 76fa c5be
00000100: fd95 a7be 5393 2ebe c356 2dbd f566 f7bd
00000110: b6f8 f0bd 1b1e 08be 8f92 00bf f863 33be
00000120: bda9 acbe c4ec 6ebe 542e 5abe 1934 fc3b
00000130: a66a 95bd d82a 15be af55 39bd f83c f73c
00000140: 5ac7 5f3e c17e 1a3d e9b1 c0bb 089f 34be
00000150: 8dd0 3e3d 774e a43d 52ae 07be 2662 e43c
00000160: 574c 63be afad e6bc 30ab 423e 3180 103e
00000170: 35bc b63d 80cf d13d 7265 3d3e 20e1 f5bc
00000180: 8c3c 9b3d f49a 893e a1e9 693e 8645 253e
00000190: e11d b6be 3651 c9be 11de fbbe 27ce 7bbe
000001a0: 4bb2 5cbe 9a87 81be adeb 55be 3595 dcbe
000001b0: e16b 4cbe 9597 40be a354 94be ba5b cfbe
000001c0: 1d6f a2be 14a0 9bbe 84c9 39be 0682 6ebc
000001d0: 46b4 e0be 9fd1 30be 00ba 2fbe 4354 22be
000001e0: 5b6b da3d 45a9 26be 607f d9bc ff5b a9bd
000001f0: 11eb 1d3f a03a f3ba f089 adbc bebd 5bbc
00000200: eeec f4bc a976 8ebd c53e b9bc 492e 1abd
00000210: ab47 8d3b 23c7 0d3d f538 48bd 4d80 03bd
00000220: 98a3 6fbd bcdb 49bd be27 3b3c 92fb 303d
00000230: 0843 f5bd b42a cebd da5b 3cbd 138a b3bd
00000240: 0608 5d3c bf73 c0bd 4ffa f6bc 54ab d6bd
00000250: c034 89bd 2254 cfbd 32f6 4cbd 1400 a1bd
00000260: f9fc 18be 97c5 5e3d 78b4 60be ce90 583d
00000270: 76ae 85be d61c 85bd def9 47bb 08c0 19be
00000280: a8f3 7ebc a21c 72be d9af 813d 6628 90bd
00000290: a4d6 8abe e372 95be 7863 15be 7b87 903c
000002a0: ed06 adbe a086 acbe 3db5 97be c045 01be
000002b0: 3f74 06bf 944f 23be 6b76 1dbd ceed 15bd
000002c0: a7d1 253d 2210 28bd e8db e9bd 07fd 39bd
000002d0: dbbe 0abe 79f4 65be 8d3c f33c 4993 d4bc
000002e0: fc5b 623b d066 af3e 37d9 d03d a959 d63e
000002f0: 1165 923e 1351 9b3e 19b9 c8be 4ea4 a5bd
00000300: 6f93 d6bd ec1d 65be df69 fbbd d29b c3bd
00000310: 4562 69be 0f5e 78be 68c5 0f3e ed39 8a3d
00000320: 2a14 e3bd c5c4 6cbe b615 b0be d001 68be
00000330: ccc6 443e 39af c7bd 73ab 17be ca5e c3bd
00000340: 603e 16be 64cc 323e 531b 31be 3392 2abe
00000350: 4272 10be 8177 053e 9c46 3cbd 99e7 7bbe
00000360: 7294 1bbe 23bd 4dbe 33f9 3fbd 097a 34be
00000370: 4121 02bf 2513 46be 41dc 71be 53f1 88be
00000380: 2582 e7be 6a2b bebe fccf abbe 77cb 9cbe
00000390: 1877 3dbe 09ac 00be 9145 88be 8c92 a6be
000003a0: 992f fbbe 8ded 17be 586d 28be d370 5cbe
000003b0: ffb7 0b3f 29ba 25bd 9722 c1bc 25cc 753e
000003c0: f1c3 223d 8e79 a13d 5090 36be f004 cf3e
000003d0: f9c0 97be d67e cebd 37fe 6abe f53f a4be
000003e0: 19eb aebe e235 a83d fc0e 983d 9c07 f7bd
000003f0: df12 7cbe ed85 5fbe 6745 493d 1f76 453d
0.06274144 0.039922602 0.12875333 -0.09244939 -0.018947277 -0.04744883 -0.08907221 -0.24068375
-0.26665795 -0.058163248 0.045632552 -0.16429815 -0.11327164 -0.18570997 0.28477657 0.08048562
0.17066514 -0.1817449 0.065893225 0.15066756 -0.19039482 0.02032059 -0.008703301 -0.0038652725
0.29888466 -0.05714998 -0.06071329 -0.06931293 -0.17695655 0.00019594212 0.25417945 -0.032855373
-0.061484132 -0.16373506 -0.15442577 0.13363121 -0.11046389 -0.12333941 -0.3909178 -0.112199664
0.20100933 -0.20181768 -0.12143455 0.031708095 -0.04638268 0.032417383 0.3153236 -0.19546299
-0.06514261 -0.19392663 0.07627368 -0.20248015 -0.113777086 0.19907883 0.114294805 -0.06337524
-0.29197082 -0.2630474 -0.09240744 -0.05798395 -0.071497045 0.041013554 -0.11307454 -0.3866765
-0.3273162 -0.17048387 -0.04231907 -0.12080184 -0.11766188 -0.13292734 -0.5022363 -0.17518604
-0.3372325 -0.23332506 -0.21306735 0.00769664 -0.07295732 -0.14567125 -0.04524773 0.03018044
0.2185339 0.03771854 -0.0058805835 -0.1763879 0.04658561 0.080227785 -0.13250092 0.027878832
-0.2219709 -0.02815899 0.19010615 0.14111401 0.089226164 0.102446556 0.1849573 -0.030014575
0.07579908 0.26876032 0.22843029 0.16139802 -0.3556967 -0.39319772 -0.4919286 -0.2459036
-0.21552388 -0.25298768 -0.20890684 -0.43082586 -0.19963028 -0.18807824 -0.28970823 -0.4049967
-0.31725398 -0.30395567 -0.18143278 -0.014557367 -0.43887538 -0.17267464 -0.17160797 -0.15852456
0.10665008 -0.16275509 -0.026549995 -0.082695 0.6168681 -0.00185569 -0.021183938 -0.013411937
-0.029898133 -0.069562264 -0.022612939 -0.037641797 0.004311522 0.03461374 -0.048882443 -0.03210478
-0.058505625 -0.04928182 0.0114230495 0.043208666 -0.11975676 -0.10066739 -0.045986034 -0.0876657
0.0134906825 -0.09397077 -0.030148653 -0.10481897 -0.066995144 -0.10123469 -0.050039478 -0.07861343
-0.14940251 0.054387655 -0.21943843 0.05287247 -0.26109666 -0.06499641 -0.0030513923 -0.1501466
-0.015561022 -0.23643735 0.063323684 -0.070389554 -0.27116883 -0.29189214 -0.14588726 0.017642727
-0.33794346 -0.3369646 -0.2963046 -0.12624264 -0.5252113 -0.15948325 -0.03844301 -0.03660374
0.040483143 -0.04103101 -0.11418897 -0.04540732 -0.13549368 -0.2245654 0.029691959 -0.025949137
0.003453969 0.34258127 0.101976804 0.4186528 0.28592733 0.30335292 -0.39203718 -0.08087979
-0.104773395 -0.22374696 -0.12276053 -0.09551205 -0.22791393 -0.2425463 0.14040148 0.0674933
-0.1108783 -0.23121937 -0.34391564 -0.22656941 0.1921646 -0.09750218 -0.14811496 -0.09539564
-0.14672232 0.17460781 -0.1729558 -0.16657333 -0.14106086 0.13033868 -0.045965776 -0.24600066
-0.15193346 -0.20091681 -0.046868514 -0.17624678 -0.5083199 -0.1934324 -0.23619176 -0.26746616
-0.4521648 -0.37142497 -0.33557117 -0.3062398 -0.18502462 -0.12565626 -0.26615575 -0.3253368
-0.49059752 -0.14836712 -0.16447961 -0.21527414 0.5457763 -0.04046074 -0.023576064 0.24003656
0.039737646 0.07884513 -0.17828488 0.40433455 -0.29639414 -0.10082786 -0.22948538 -0.32080045
-0.3416374 0.08213402 0.07424733 -0.12061998 -0.24616574 -0.21828432 0.049138453 0.048208352

fc1.bias f4 [120]
00000000: 3bb8 acbc 4de4 6ebd f1b1 a3bc bc32 6cbf
00000010: 1acd c5bd d62e e8be 65f0 c7bf d980 66bf
00000020: b4b3 8abf 4ddf d0bf e913 c0bf d2aa d83e
00000030: 39fe ad3d b617 64bf b838 8cbf 9147 f8bf
00000040: d8ca b3bf 0626 6d3e 4ee8 31bf 3238 edbf
00000050: 163f dabf d599 66bf 774b 0ebf e378 d6bf
00000060: ccf0 16bf e33c 7e3e 5dd8 2e3f e5c3 503e
00000070: 6919 1c3f 5c60 16bf fa70 bc3d 22e2 3b3f
00000080: 2e77 213f 8ca3 e73e 7a42 b73f 42b2 80bf
00000090: 3051 783e 5168 dcba 729b cfbf 755c 9abf
000000a0: 5822 a3bf 50c6 cebe d242 9fbe a831 dabd
000000b0: 3811 28be a104 5ebe 54e4 b8be 40aa 56bf
000000c0: 6217 90bf a4da cdbf 7cf7 11bf 56c1 bfbf
000000d0: 054e 46bf fa06 d63d 9ca0 adbf 8ad4 0fbe
000000e0: 4d77 07be 71b6 353d 32f7 32bf 58e0 afbf
000000f0: a95a aabd f546 11be 0561 8bbe 3758 40bf
00000100: 76e8 96bd 6e05 323f 2c9d c7bf 72eb 4fbf
00000110: 19ac 0b3e 1f48 9c3e 1f16 213f 2099 bd3d
00000120: 197d 6abf 8159 7fbe adcb 38be 254b babf
00000130: 5379 2c3f afd8 e53e bc19 0fbf 67a4 cebf
00000140: a534 cabe d89f 5d3e b736 99bf 7123 3ebf
00000150: 8e24 29bd 1a0d e2be ed07 33bb 456f a03d
00000160: b75f d0bd e8da 2abf 112a 39be df1c eabe
00000170: 5351 09bf 68d9 acbf aa52 303e 87c7 77bf
00000180: 49d0 c0bf e4af 0bbf 75a5 a8ba 265f d9be
00000190: d98f ce3d a84c 10bd e27b 1a3e f623 183e
000001a0: 931c 8fbc 5c81 483f 6333 7dbe f09c e0be
000001b0: 3f58 e0bd 1914 49bf f803 f13e afad cebf
000001c0: 04d9 0a3f 01d5 70bf ea1c b4bf d2a4 c5be
000001d0: a3a0 aabf ab8e 01bf 27e5 3cbf 7435 dd3c
-0.021083942 -0.058323193 -0.01998231 -0.92264915 -0.09658261 -0.45348233 -1.5620238 -0.90040356
-1.0836091 -1.6318146 -1.5006076 0.42317826 0.08495755 -0.8909868 -1.0954809 -1.939684
-1.4046278 0.23159036 -0.69495094 -1.8532774 -1.7050502 -0.9007848 -0.555839 -1.6755642
-0.58961177 0.24827914 0.68298894 0.20387228 0.6097627 -0.5874078 0.09201236 0.73391926
0.6307248 0.45241964 1.4317162 -1.00544 0.2424972 -0.0016815757 -1.6219313 -1.2059466
-1.2744856 -0.40385675 -0.31105667 -0.106540024 -0.16412818 -0.21681453 -0.361117 -0.8385353
-1.1257136 -1.6082349 -0.57018256 -1.4980876 -0.774628 0.104505494 -1.3564639 -0.14045921
-0.13229103 0.044363443 -0.6990844 -1.3740339 -0.08318073 -0.14187224 -0.27222458 -0.75134605
-0.07368557 0.69539535 -1.559484 -0.81218636 0.13639869 0.30523774 0.6292438 0.09257722
-0.91597134 -0.24936487 -0.18046446 -1.4554182 0.67372626 0.4489188 -0.5589864 -1.6143922
-0.3949329 0.21643007 -1.1969823 -0.7427283 -0.041294627 -0.4415062 -0.0027317957 0.07833723
-0.10174506 -0.66740274 -0.18082453 -0.45725152 -0.53639716 -1.3503847 0.17219034 -0.9678883
-1.5063564 -0.5456526 -0.0012866693 -0.42455405 0.100860305 -0.035229355 0.1508632 0.14857468
-0.01746968 0.78322387 -0.24726634 -0.43869734 -0.109543316 -0.7854629 0.4707334 -1.6146754
0.5423739 -0.9407502 -1.4071324 -0.3860231 -1.3330272 -0.5060832 -0.7378716 0.027003027

fc2.weight f4 [84, 120]
00000000: 6493 b9be 3a3e 763c a6dc 0bbf cd6a f83d
00000010: 4334 f8bd f9e1 18be ca9c a7be 20e2 68be
00000020: cd73 fbbe c7fe 0ebd 8f5a ebbe 514d 8bbe
00000030: 1a6a 49be 0cd3 b9be d262 9bbe 91e1 b23d
00000040: a9a2 7d3e ba1c 43bd 2ecf eabe 6c45 22bd
00000050: 9427 80be ce45 bb3d 9daf 20be 7756 57be
00000060: bf32 9cbe 92a0 d1be b654 85be 9327 d73d
00000070: bf8b b4be 76a7 3abe d056 73be 0f86 97be
00000080: a237 a0be 9aff 883d 68f4 efbe 2dc6 a2be
00000090: bf78 d2bd 4d96 49be d098 08be f356 e43e
000000a0: fbcb eebe 46df 6cbe 526f 6c3c efbb 68bd
000000b0: da97 9cbd 4081 b2be e42b adbe 1681 033f
000000c0: e9c6 dcbe 7b0f df3e 29ea 093e d75a 82be
000000d0: d60a 42be 1b69 bdbe dfa9 49bf 0ea0 b5be
000000e0: 65b3 e2bd 66bf 26bd 56f0 0cbe 3d0e a9be
000000f0: c676 6cbd 92d5 4fbe 25e8 55be b1bc b73e
00000100: 5636 84be a61f 43bf bd9e 7b3e c440 67be
00000110: eb83 fabd d3ea 453d fb90 1dbd cd6f e3be
00000120: bc01 94bc fec0 a53d b251 20be 452b c43d
00000130: 8260 2fbe 64a9 08bf 2b84 2bbe 41ed dcbd
00000140: 9a67 09be 2bcf c2bd 2c81 b23e a8c0 f2be
00000150: 35c9 46be 432d a4be 85d1 1cbe d94a afbe
00000160: d021 eabc 885f a4be ff91 bebe 8fa9 9e3d
00000170: 8ad6 a5bd 7aa2 a8be 6a09 61be aa33 a1be
00000180: 2722 37be 8cf4 d3be 6fb0 0ebf e0e2 a4be
00000190: ed5a e9be 8824 803d bcda b8be d02a a8be
000001a0: 5016 84be 2ad2 a9be 506b babd e83a 58be
000001b0: c8a6 5bbe 24b0 f0be 1448 febe 2e81 a0be
000001c0: 2109 c4be 7554 f2bd 1ec0 37be 3a0e 2dbf
000001d0: 1364 3b3e 069b 6fbe d318 813e 0116 88be
000001e0: 1823 0fbe e109 6abe 7a79 2cbd 5dcd 5abc
000001f0: 8622 8ebc ddff 0cbd a95c 8b3e 0b7d a3be
00000200: 888d d3bc f01e 97bc f2b2 5abd a088 9f3e
00000210: 9848 96be fc26 a93d 46bb 59be 606c 18bf
00000220: d7e5 f93d 153a 0dbe 92da e03d c6ed 5a3e
00000230: 3f0a f7bc a227 62be b874 c9be e95a 3d3e
00000240: 22aa b3bd 5fa3 dbbe 2533 43be 6bfe 73be
00000250: 4afe a53c 5703 733e d504 703d cffa 253d
00000260: 65d8 3e3e 2605 a1be 1828 32be 9d7f 9dbe
00000270: 5600 a0be dbd3 35be f259 b8be 5715 cabe
00000280: 989c f43c d916 71bd bdb2 8f3d 5dc1 13be
00000290: becf c7bc a5ff f9bd cf7b c8bd eab8 83be
000002a0: 45af c13d c2f9 d6bd 5c49 033e 69d3 febe
000002b0: d181 eebd ce57 babe 4ae9 0fbe 3acd 0fbe
000002c0: e6ec 37be 026d de3c cb61 cc3c ff93 27be
000002d0: 9ea0 353e 4de9 053c 29fe 47be 1985 1dbe
000002e0: 36e2 1abe a0bd dfbd c2a1 a23d 9d5f 263e
000002f0: 02a7 06be 254d 9a3c accc 4ebe da52 c2bd
00000300: ca1a 5b3d f3be 34bd 3384 ddbd a1a5 8bbe
00000310: 041f 87be 00da 97be b76b 36be af74 803d
00000320: 8e2b 3ebe 46b2 88be 902c 23be 27c6 05be
00000330: 1736 2a3e 0669 ddbe 5476 abbe ccf3 3dbe
00000340: d049 80bd fec1 613d 9247 32be abec 8cbd
00000350: 0daf 91bd c058 70be 8416 bebd 2298 003e
00000360: 38c9 37bc 9ddc 81be 5691 43be 661a 4dbe
00000370: df22 13be 38a0 6ebe c0a9 12be 7ac6 e8be
00000380: f0e8 95be e80b 37be 056e 86bd 9dd3 6a3e
00000390: c820 98be e0d5 fe3c c0a8 86be 3606 9c3e
000003a0: 3ca4 c43d a2ac 003e 0735 273e c0aa 05be
000003b0: 008c 6a3e ff7b acbe e330 783e 207e 9ebe
000003c0: 651b 90be dee2 55be c4d2 b3be 5d4e 0dbe
000003d0: 0b0f e8bd 5774 87be dea7 903d a8cb b7be
000003e0: e5ff e9bd bdd3 e5be 4c55 8abe db6e 39be
000003f0: 2962 70be e4cf cfbd 459d 31be 7333 1ebf
-0.36245263 0.015029484 -0.5463356 0.12129746 -0.12119343 -0.14929952 -0.32736808 -0.2274251
-0.49111786 -0.034910943 -0.45967528 -0.27207425 -0.19669381 -0.36293828 -0.3034883 0.0873443
0.24769081 -0.047634818 -0.4586119 -0.039616987 -0.25030196 0.091441736 -0.15691991 -0.21029077
-0.30507466 -0.40942818 -0.26041192 0.10505595 -0.35262868 -0.18227944 -0.23763585 -0.29594466
-0.31292444 0.06689377 -0.46866155 -0.3179182 -0.10276937 -0.19686241 -0.13339543 0.44597587
-0.4664 -0.23132047 0.014430838 -0.056819852 -0.07646151 -0.34864235 -0.33822548 0.51368845
-0.43120506 0.43566498 0.13468231 -0.2545993 -0.18949446 -0.36994252 -0.7877483 -0.35473675
-0.11069373 -0.040709876 -0.13763556 -0.33018675 -0.05773046 -0.20296314 -0.20889337 0.35886148
-0.25822705 -0.76220167 0.24572273 -0.225833 -0.122321926 0.04831965 -0.038468342 -0.44421235
-0.018067233 0.08093451 -0.15656164 0.095785655 -0.17126659 -0.5338347 -0.16749637 -0.1078744
-0.13418427 -0.095121704 0.34864175 -0.4741261 -0.19412692 -0.32065782 -0.153143 -0.34236792
-0.028580576 -0.32104135 -0.3722076 0.077471845 -0.08097561 -0.3293646 -0.21976247 -0.3148473
-0.17884122 -0.41397512 -0.55737966 -0.32204342 -0.45577183 0.06256968 -0.3610438 -0.32845163
-0.25798273 -0.33168155 -0.091024995 -0.21116221 -0.21450341 -0.47009385 -0.49664366 -0.31348556
-0.38288215 -0.11832515 -0.1794438 -0.67599833 0.18299894 -0.2339898 0.25214252 -0.26579288
-0.13978231 -0.22855331 -0.042108037 -0.0133546265 -0.017350446 -0.034423698 0.27219132 -0.31931338
-0.025824323 -0.01844737 -0.05339331 0.31158924 -0.2935226 0.08259389 -0.21262845 -0.5954037
0.122020416 -0.13791688 0.10979189 0.21379766 -0.030156253 -0.22085431 -0.39346862 0.1849171
-0.08772685 -0.4289808 -0.19062479 -0.23827522 0.020262856 0.23731743 0.05859836 0.040522393
0.18637235 -0.3144924 -0.17398107 -0.30761424 -0.31250256 -0.17756598 -0.36006123 -0.39469406
0.029859826 -0.05885968 0.070165135 -0.14429231 -0.024391051 -0.122069634 -0.097892396 -0.25727016
0.09457258 -0.10496856 0.12820953 -0.49770668 -0.11645854 -0.36395115 -0.14053836 -0.14043131
-0.17961463 0.027151588 0.024948975 -0.1636505 0.17737052 0.008173299 -0.19530548 -0.15382804
-0.15125355 -0.1092484 0.07941009 0.16247411 -0.13149646 0.018835614 -0.20195264 -0.09488459
0.053492345 -0.044127416 -0.108162306 -0.27274802 -0.2639085 -0.29658508 -0.17814527 0.06272256
-0.18571302 -0.26698512 -0.15934968 -0.1306387 0.16622196 -0.4324419 -0.33488715 -0.18550032
-0.062640786 0.055116646 -0.17410114 -0.06881078 -0.071134664 -0.23471355 -0.09281638 0.12558034
-0.011217408 -0.25363627 -0.1909841 -0.20029601 -0.14368771 -0.23303306 -0.14322567 -0.45463926
-0.2927928 -0.17875636 -0.06563953 0.22932287 -0.2971251 0.031107843 -0.2630062 0.3047349
0.09601638 0.12565854 0.16328822 -0.13053417 0.22904968 -0.33688352 0.24237399 -0.309556
-0.281459 -0.20887324 -0.3512174 -0.13799424 -0.11330994 -0.26455948 0.07063268 -0.35897565
-0.11425761 -0.44888106 -0.270182 -0.18108694 -0.23474945 -0.10147074 -0.1734515 -0.61797255

fc2.bias f4 [84]
00000000: e281 983e 625f 983e 3f28 a6bd d637 e73d
00000010: e3d7 0fbf 885c 1d3e 94a1 a3be 4855 96be
00000020: 6a6d 19be ea6a 8a3e 0638 c13e 327d b1bd
00000030: 4c39 42be 47f6 c33e c220 d9be c94e a9be
00000040: 20b4 3fbc 0f45 f1bc c0d2 2dbe 42d3 4abe
00000050: ce97 e7be 89fb 5ebe 553b 8bbe bb68 54be
00000060: ecbd 9a3d abc4 17bf 675a f0bd a972 89be
00000070: a062 d83e d350 b5be 4be4 0f3f 54e2 863e
00000080: 12d0 c33e 3b06 b7be 4bc1 f8be b2e6 973e
00000090: 3273 e0bd 08da c13e 2366 d1bc 7c19 2f3e
000000a0: ce12 9cbe 38a7 a8be 7f94 88bd 2fe8 9bbe
000000b0: 7ecc ac3e 9497 b2bd ce6b 583e af73 aebd
000000c0: 0782 41bc 5c2d 08bf e000 113e 4bfc 21be
000000d0: 4b5e e6bd 2a9b 613e b201 57be 0f91 ccbe
000000e0: 3fd9 aa3e 51f6 e6bd 97d8 a8bd c342 68be
000000f0: 8d3f 8a3f fc31 dbbe 70aa a7bd a776 e03e
00000100: 458f f8be 460d 9fbe d354 5cbe 998c 9fbe
00000110: af68 2cbf 1269 f2be 98d8 5abe 0343 053f
00000120: 88f9 a63d 4969 4cbe 6235 a8be 514d cfbc
00000130: ca83 8ebe f642 6fbe c21a 1cbd dd78 76be
00000140: 90cf 7f3e bcab 59bd a523 eabd ad03 adbd
0.29786593 0.2976027 -0.08113145 0.11289947 -0.5618879 0.15367329 -0.31959212 -0.2936194
-0.14983144 0.27034694 0.37738055 -0.08666457 -0.1896717 0.38273832 -0.42407805 -0.3306792
-0.01170066 -0.029451875 -0.16974926 -0.19807151 -0.45233005 -0.2177564 -0.27193704 -0.20743077
0.07555756 -0.59284467 -0.11735993 -0.2684529 0.42262745 -0.35413226 0.5620772 0.2634455
0.38244683 -0.3574694 -0.4858497 0.29668194 -0.10959472 0.37861657 -0.025561398 0.17099565
-0.30483097 -0.32940078 -0.066689484 -0.3045058 0.33749765 -0.087203175 0.21134874 -0.08518159
-0.011810786 -0.5319421 0.1416049 -0.15818898 -0.11248454 0.22031847 -0.2099674 -0.3995442
0.3336887 -0.1127745 -0.08244436 -0.22681718 1.0800644 -0.42811573 -0.08186805 0.43840525
-0.48546806 -0.31064814 -0.21516733 -0.31161955 -0.67347234 -0.47345787 -0.21371686 0.52055377
0.08153063 -0.19962038 -0.32853228 -0.025305422 -0.27834922 -0.23365387 -0.038111456 -0.24069543
0.24981523 -0.053142294 -0.1143258 -0.08447967

fc3.weight f4 [10, 84]
00000000: 0b85 753d ee6d 2ebe 22a9 a0be ee2c b5bc
00000010: 6ba8 8c3e 4a2a bebe ce1d 22be ae19 ad3e
00000020: 28f5 593d d7a9 b2be fd4a 4dbe 51f2 b93c
00000030: 5fed 6fbe 2b00 5abe 4903 903e 1559 2c3c
00000040: 5867 6c3e a1c5 12be 3c4d bfbd 8cfd dbbd
00000050: 86cd d83c d5dd a23c 4f9e 4b3e 6779 02bf
00000060: e5a3 23bd 1517 8b3d 5a3c febd 972b 24bd
00000070: 6751 fabd 79a9 f2be c446 f4be 3232 40bd
00000080: 5b08 123f d3f3 58bd c1e6 3c3c 0321 83be
00000090: 0c09 60bd bd78 babc 2790 d4bd f704 3a3e
000000a0: 910c 15be 31a6 b83d 4033 903e e6d1 533e
000000b0: 5908 86be a0c4 a2be f4b2 2d3e 7426 35be
000000c0: e67c 433e 320c 1ebc d47b 55be 632b 22be
000000d0: 9035 a1bc 670f 38be 9d1e 9cbc 0b1c d53d
000000e0: 8e70 07bf 92f2 d1be 68b7 d9be 0836 f7bd
000000f0: 7fda 11bf a8d5 37be e055 2bbe bb6f a13e
00000100: bc3f b53c 00a6 323e 963c 043e 2b7e 46bd
00000110: d7d8 473e 3b6b 563f d5a9 eb3d ae1d 0bbe
00000120: ba0e c0be da8d 97bd 9b5e 713d 66e5 29be
00000130: bcf0 92bd 00a7 72bd 3565 31bd 442d 813e
00000140: aff5 223e a306 a8be 9c03 26be 9e51 48be
00000150: d983 fdbe 8edc f8be 5461 08bf 6c81 43bf
00000160: ee85 db3e 5c58 51be 6cf4 3d3e b065 ee3e
00000170: 6f0f 0d3e f530 55bf 45ef b7be 3c1d 9f3e
00000180: bbf0 52be a443 90be 1002 4f3e 01ce 5cbe
00000190: a835 9cbe e95e 69be 4ca7 77be b0bb 93bd
000001a0: c8f0 fb3d efb3 57bd 60ed b9be 8fe8 e5be
000001b0: d0e8 17be 789b b33d a40e 6e3e 5a16 57bd
000001c0: fee4 f4be ad44 8ebe 67c8 23bf c894 a93c
000001d0: 2833 edbd 8834 243f 5153 5c3e 5b0c 24bf
000001e0: 7e56 2d3e dff0 f2bd 59bb 82be 429b efbe
000001f0: 1724 613e ac42 a2bd 9ec6 9d3d bcff 823e
00000200: 0700 41bf cae3 83be 0cd2 acbe 2cfe 06bf
00000210: e730 0ebe 0ab9 383e b172 753e 82ce 67be
00000220: 2335 fc3e 6b77 aebe cfc7 fc3b de70 0f3e
00000230: b828 e8be b8e4 d7be f050 4bbe bb42 c9be
00000240: 380c 0fbf 0d88 3bbd 2080 9cbe 1828 0abe
00000250: a324 fd3c 77fa 243e 17ef c43c 088b 06bd
00000260: 83c9 4dbc 51e5 0e3f 852b 29be 4431 0ebf
00000270: 9cb7 2cbd 9ae1 1fbe 51e2 13be 9856 d5bd
00000280: a33f e0bc 452f 4b3d 1539 54bd 4ad7 aabe
00000290: 0424 a4be 1351 243c 6da3 8dbe 2930 19be
000002a0: e12d d13e c58c a4ba 4899 193e fbdb b53e
000002b0: 006b bdbd 9cf7 803e 97cf b2be fe9e 1cbd
000002c0: 65fb ae3d b25b f83e 4a3d a83e 33ac 60be
000002d0: 5914 333e 74cc f33d d2a4 60bd 4157 a53e
000002e0: c0e1 693e 4eaf 063e 930f c23e 9bd3 9b3d
000002f0: 044f b33e 6806 4e3d 071f 453e b533 b93e
00000300: be24 243e 6e1e 58bc 5a2d a9be 9042 db3b
00000310: e5de 6e3e 3c29 913e db08 2b3e 08c0 263e
00000320: 07a0 e13c 949f b9bd 43d5 d03d 1cb3 253e
00000330: 00e8 2b3c 6f3d 623e b453 393e ae2d 193d
00000340: 0e73 d9bc 105e ea3c 739e 653d 61a3 0bbe
00000350: 6e1c 6c3e 1b39 073e 093f 3f3d 1b08 d53e
00000360: 3c24 e2bd 8e8f 833e 81c7 a8bc 8f56 ca3e
00000370: ed38 bebe cdc0 80bd 74de 46bc 3391 9e3d
00000380: 1dac 493e b18a a5bc d016 373e 11d9 e43d
00000390: fad3 d13e 5ccf 243d caff 083e 149a f73e
000003a0: 6934 6bbe bdec b6bd 49b2 cd3c 6946 023f
000003b0: 6eac 6ebe c568 2cbd 246c 7b3d c423 053f
000003c0: 627d f73d 266b a73d 256d de3b 0729 6b3d
000003d0: 1d91 7f3e c993 b1bc a7c4 063d 9003 bc3d
000003e0: 3d29 653e 4696 a83e 77c2 ddbd 77a1 223e
000003f0: 74ec d23d 37e3 843e 2023 1d3e a80c 393e
0.059941333 -0.17034122 -0.31379038 -0.02211615 0.27472243 -0.3714164 -0.15831682 0.33808655
0.053212315 -0.34895203 -0.20048137 0.022698553 -0.23430394 -0.21289127 0.28127506 0.010519286
0.23086298 -0.14333202 -0.09340903 -0.107417196 0.026465189 0.019881168 0.19884609 -0.50966495
-0.039951224 0.06791512 -0.12413855 -0.040080633 -0.122225575 -0.47394922 -0.4771024 -0.04692287
0.57044 -0.052966904 0.011529625 -0.25611123 -0.054696128 -0.02276265 -0.103790574 0.18165956
-0.14555575 0.090160735 0.281641 0.20685539 -0.26178244 -0.31790638 0.16962796 -0.1769045
0.19090614 -0.009646462 -0.20848018 -0.15836863 -0.01967886 -0.17974626 -0.019057566 0.104057394
-0.5290612 -0.4100538 -0.4252274 -0.120708525 -0.56974024 -0.17952597 -0.16731977 0.31530556
0.022125117 0.17446136 0.12913737 -0.048460167 0.19516312 0.8375737 0.11507002 -0.1358554
-0.37511235 -0.07400103 0.058928113 -0.16591415 -0.07174823 -0.059241295 -0.04330941 0.25229847
0.15914033 -0.32817563 -0.16212314 -0.19562384 -0.49514654 -0.4860577 -0.5327351 -0.7636936
0.42875618 -0.20443863 0.18550271 0.46561956 0.13775419 -0.8327783 -0.35924736 0.31076992
-0.20599644 -0.28176606 0.2021563 -0.21562959 -0.30509686 -0.22790112 -0.24184912 -0.07213533
0.12301785 -0.052661832 -0.36313915 -0.4490399 -0.14834905 0.08769888 0.23247772 -0.05251155
-0.47830957 -0.2778677 -0.63977665 0.020700827 -0.11582023 0.64142656 0.21516158 -0.6408135
0.16927525 -0.11862349 -0.2553356 -0.4679814 0.21986423 -0.07922873 0.07703899 0.25585735
-0.75390667 -0.25759727 -0.33754003 -0.52731586 -0.13885842 0.18039337 0.23969533 -0.2263737
0.4925929 -0.34075484 0.0077142487 0.14007899 -0.45343566 -0.42166686 -0.19855094 -0.39308724
-0.5587802 -0.045784045 -0.30566502 -0.13491857 0.030901259 0.1611117 0.024039788 -0.032847434
-0.012560251 0.5581866 -0.16520508 -0.55543923 -0.04216729 -0.15613404 -0.14441802 -0.10416907
-0.027374094 0.049605627 -0.05181225 -0.33367378 -0.32058728 0.010029095 -0.27663746 -0.14959778
0.40855315 -0.001255416 0.14999878 0.35519394 -0.09248924 0.2518891 -0.34924003 -0.038237564
0.085440435 0.48507458 0.3285926 -0.21940689 0.17488231 0.11904231 -0.054844685 0.32293132
0.22840023 0.13152811 0.37902507 0.0760872 0.35021222 0.05029908 0.19250117 0.36172262
0.16029641 -0.013190849 -0.33042413 0.0066912845 0.23327215 0.28351772 0.16702597 0.16284192
0.027542127 -0.0906364 0.101969264 0.16181606 0.010492325 0.22093748 0.18098336 0.03739708
-0.02654412 0.028609306 0.056059312 -0.13636543 0.2305772 0.13205378 0.046690974 0.41607746
-0.110420674 0.2569546 -0.020602943 0.39519164 -0.37152806 -0.06286774 -0.012137998 0.07742538
0.19694562 -0.020207735 0.17879796 0.11174215 0.40982038 0.040236816 0.13378826 0.4835974
-0.22969212 -0.08931873 0.025109427 0.5088869 -0.23307964 -0.042092104 0.061382428 0.520077
0.12084462 0.08174734 0.0067879134 0.057412174 0.249577 -0.021676915 0.032902386 0.09180367
0.22379012 0.3292715 -0.10828107 0.15881906 0.10299006 0.259546 0.1534543 0.18071234

fc3.bias f4 [10]
00000000: 96cb 703e 517c c93e 7b7f 17be 5f33 013e
00000010: 2009 34bf 4c95 043e 6710 dbbe c441 c13e
00000020: cf73 6cbe 9b8e ec3e
0.23515162 0.39352658 -0.14794724 0.12617253 -0.70326424 0.12947577 -0.42785951 0.37745488
-0.23091052 0.4620255
